<?xml version="1.0"?>
<net name="torch_jit" version="11">
	<layers>
		<layer id="0" name="images" type="Parameter" version="opset1">
			<data shape="1,3,640,640" element_type="f32" />
			<output>
				<port id="0" precision="FP32" names="images">
					<dim>1</dim>
					<dim>3</dim>
					<dim>640</dim>
					<dim>640</dim>
				</port>
			</output>
		</layer>
		<layer id="1" name="model.0.conv.weight" type="Const" version="opset1">
			<data element_type="f32" shape="8, 3, 3, 3" offset="0" size="864" />
			<output>
				<port id="0" precision="FP32" names="model.0.conv.weight">
					<dim>8</dim>
					<dim>3</dim>
					<dim>3</dim>
					<dim>3</dim>
				</port>
			</output>
		</layer>
		<layer id="2" name="/model.0/conv/Conv/WithoutBiases" type="Convolution" version="opset1">
			<data strides="2, 2" dilations="1, 1" pads_begin="1, 1" pads_end="1, 1" auto_pad="explicit" />
			<input>
				<port id="0" precision="FP32">
					<dim>1</dim>
					<dim>3</dim>
					<dim>640</dim>
					<dim>640</dim>
				</port>
				<port id="1" precision="FP32">
					<dim>8</dim>
					<dim>3</dim>
					<dim>3</dim>
					<dim>3</dim>
				</port>
			</input>
			<output>
				<port id="2" precision="FP32">
					<dim>1</dim>
					<dim>8</dim>
					<dim>320</dim>
					<dim>320</dim>
				</port>
			</output>
		</layer>
		<layer id="3" name="Reshape_130" type="Const" version="opset1">
			<data element_type="f32" shape="1, 8, 1, 1" offset="864" size="32" />
			<output>
				<port id="0" precision="FP32">
					<dim>1</dim>
					<dim>8</dim>
					<dim>1</dim>
					<dim>1</dim>
				</port>
			</output>
		</layer>
		<layer id="4" name="/model.0/conv/Conv" type="Add" version="opset1">
			<data auto_broadcast="numpy" />
			<input>
				<port id="0" precision="FP32">
					<dim>1</dim>
					<dim>8</dim>
					<dim>320</dim>
					<dim>320</dim>
				</port>
				<port id="1" precision="FP32">
					<dim>1</dim>
					<dim>8</dim>
					<dim>1</dim>
					<dim>1</dim>
				</port>
			</input>
			<output>
				<port id="2" precision="FP32" names="/model.0/conv/Conv_output_0">
					<dim>1</dim>
					<dim>8</dim>
					<dim>320</dim>
					<dim>320</dim>
				</port>
			</output>
		</layer>
		<layer id="5" name="/model.0/act/Mul" type="Swish" version="opset4">
			<input>
				<port id="0" precision="FP32">
					<dim>1</dim>
					<dim>8</dim>
					<dim>320</dim>
					<dim>320</dim>
				</port>
			</input>
			<output>
				<port id="1" precision="FP32" names="/model.0/act/Mul_output_0">
					<dim>1</dim>
					<dim>8</dim>
					<dim>320</dim>
					<dim>320</dim>
				</port>
			</output>
		</layer>
		<layer id="6" name="model.1.conv.weight" type="Const" version="opset1">
			<data element_type="f32" shape="16, 8, 3, 3" offset="896" size="4608" />
			<output>
				<port id="0" precision="FP32" names="model.1.conv.weight">
					<dim>16</dim>
					<dim>8</dim>
					<dim>3</dim>
					<dim>3</dim>
				</port>
			</output>
		</layer>
		<layer id="7" name="/model.1/conv/Conv/WithoutBiases" type="Convolution" version="opset1">
			<data strides="2, 2" dilations="1, 1" pads_begin="1, 1" pads_end="1, 1" auto_pad="explicit" />
			<input>
				<port id="0" precision="FP32">
					<dim>1</dim>
					<dim>8</dim>
					<dim>320</dim>
					<dim>320</dim>
				</port>
				<port id="1" precision="FP32">
					<dim>16</dim>
					<dim>8</dim>
					<dim>3</dim>
					<dim>3</dim>
				</port>
			</input>
			<output>
				<port id="2" precision="FP32">
					<dim>1</dim>
					<dim>16</dim>
					<dim>160</dim>
					<dim>160</dim>
				</port>
			</output>
		</layer>
		<layer id="8" name="Reshape_180" type="Const" version="opset1">
			<data element_type="f32" shape="1, 16, 1, 1" offset="5504" size="64" />
			<output>
				<port id="0" precision="FP32">
					<dim>1</dim>
					<dim>16</dim>
					<dim>1</dim>
					<dim>1</dim>
				</port>
			</output>
		</layer>
		<layer id="9" name="/model.1/conv/Conv" type="Add" version="opset1">
			<data auto_broadcast="numpy" />
			<input>
				<port id="0" precision="FP32">
					<dim>1</dim>
					<dim>16</dim>
					<dim>160</dim>
					<dim>160</dim>
				</port>
				<port id="1" precision="FP32">
					<dim>1</dim>
					<dim>16</dim>
					<dim>1</dim>
					<dim>1</dim>
				</port>
			</input>
			<output>
				<port id="2" precision="FP32" names="/model.1/conv/Conv_output_0">
					<dim>1</dim>
					<dim>16</dim>
					<dim>160</dim>
					<dim>160</dim>
				</port>
			</output>
		</layer>
		<layer id="10" name="/model.1/act/Mul" type="Swish" version="opset4">
			<input>
				<port id="0" precision="FP32">
					<dim>1</dim>
					<dim>16</dim>
					<dim>160</dim>
					<dim>160</dim>
				</port>
			</input>
			<output>
				<port id="1" precision="FP32" names="/model.1/act/Mul_output_0">
					<dim>1</dim>
					<dim>16</dim>
					<dim>160</dim>
					<dim>160</dim>
				</port>
			</output>
		</layer>
		<layer id="11" name="model.2.cv1.conv.weight" type="Const" version="opset1">
			<data element_type="f32" shape="16, 16, 1, 1" offset="5568" size="1024" />
			<output>
				<port id="0" precision="FP32" names="model.2.cv1.conv.weight">
					<dim>16</dim>
					<dim>16</dim>
					<dim>1</dim>
					<dim>1</dim>
				</port>
			</output>
		</layer>
		<layer id="12" name="/model.2/cv1/conv/Conv/WithoutBiases" type="Convolution" version="opset1">
			<data strides="1, 1" dilations="1, 1" pads_begin="0, 0" pads_end="0, 0" auto_pad="explicit" />
			<input>
				<port id="0" precision="FP32">
					<dim>1</dim>
					<dim>16</dim>
					<dim>160</dim>
					<dim>160</dim>
				</port>
				<port id="1" precision="FP32">
					<dim>16</dim>
					<dim>16</dim>
					<dim>1</dim>
					<dim>1</dim>
				</port>
			</input>
			<output>
				<port id="2" precision="FP32">
					<dim>1</dim>
					<dim>16</dim>
					<dim>160</dim>
					<dim>160</dim>
				</port>
			</output>
		</layer>
		<layer id="13" name="Reshape_230" type="Const" version="opset1">
			<data element_type="f32" shape="1, 16, 1, 1" offset="6592" size="64" />
			<output>
				<port id="0" precision="FP32">
					<dim>1</dim>
					<dim>16</dim>
					<dim>1</dim>
					<dim>1</dim>
				</port>
			</output>
		</layer>
		<layer id="14" name="/model.2/cv1/conv/Conv" type="Add" version="opset1">
			<data auto_broadcast="numpy" />
			<input>
				<port id="0" precision="FP32">
					<dim>1</dim>
					<dim>16</dim>
					<dim>160</dim>
					<dim>160</dim>
				</port>
				<port id="1" precision="FP32">
					<dim>1</dim>
					<dim>16</dim>
					<dim>1</dim>
					<dim>1</dim>
				</port>
			</input>
			<output>
				<port id="2" precision="FP32" names="/model.2/cv1/conv/Conv_output_0">
					<dim>1</dim>
					<dim>16</dim>
					<dim>160</dim>
					<dim>160</dim>
				</port>
			</output>
		</layer>
		<layer id="15" name="/model.2/cv1/act/Mul" type="Swish" version="opset4">
			<input>
				<port id="0" precision="FP32">
					<dim>1</dim>
					<dim>16</dim>
					<dim>160</dim>
					<dim>160</dim>
				</port>
			</input>
			<output>
				<port id="1" precision="FP32" names="/model.2/cv1/act/Mul_output_0">
					<dim>1</dim>
					<dim>16</dim>
					<dim>160</dim>
					<dim>160</dim>
				</port>
			</output>
		</layer>
		<layer id="16" name="Constant_261" type="Const" version="opset1">
			<data element_type="i64" shape="" offset="6656" size="8" />
			<output>
				<port id="0" precision="I64" />
			</output>
		</layer>
		<layer id="17" name="Constant_9" type="Const" version="opset1">
			<data element_type="i64" shape="2" offset="6664" size="16" />
			<output>
				<port id="0" precision="I64" names="onnx::Split_123">
					<dim>2</dim>
				</port>
			</output>
		</layer>
		<layer id="18" name="/model.2/Split" type="VariadicSplit" version="opset1">
			<input>
				<port id="0" precision="FP32">
					<dim>1</dim>
					<dim>16</dim>
					<dim>160</dim>
					<dim>160</dim>
				</port>
				<port id="1" precision="I64" />
				<port id="2" precision="I64">
					<dim>2</dim>
				</port>
			</input>
			<output>
				<port id="3" precision="FP32" names="/model.2/Split_output_0">
					<dim>1</dim>
					<dim>8</dim>
					<dim>160</dim>
					<dim>160</dim>
				</port>
				<port id="4" precision="FP32" names="/model.2/Split_output_1">
					<dim>1</dim>
					<dim>8</dim>
					<dim>160</dim>
					<dim>160</dim>
				</port>
			</output>
		</layer>
		<layer id="19" name="model.2.m.0.cv1.conv.weight" type="Const" version="opset1">
			<data element_type="f32" shape="8, 8, 3, 3" offset="6680" size="2304" />
			<output>
				<port id="0" precision="FP32" names="model.2.m.0.cv1.conv.weight">
					<dim>8</dim>
					<dim>8</dim>
					<dim>3</dim>
					<dim>3</dim>
				</port>
			</output>
		</layer>
		<layer id="20" name="/model.2/m.0/cv1/conv/Conv/WithoutBiases" type="Convolution" version="opset1">
			<data strides="1, 1" dilations="1, 1" pads_begin="1, 1" pads_end="1, 1" auto_pad="explicit" />
			<input>
				<port id="0" precision="FP32">
					<dim>1</dim>
					<dim>8</dim>
					<dim>160</dim>
					<dim>160</dim>
				</port>
				<port id="1" precision="FP32">
					<dim>8</dim>
					<dim>8</dim>
					<dim>3</dim>
					<dim>3</dim>
				</port>
			</input>
			<output>
				<port id="2" precision="FP32">
					<dim>1</dim>
					<dim>8</dim>
					<dim>160</dim>
					<dim>160</dim>
				</port>
			</output>
		</layer>
		<layer id="21" name="Reshape_283" type="Const" version="opset1">
			<data element_type="f32" shape="1, 8, 1, 1" offset="8984" size="32" />
			<output>
				<port id="0" precision="FP32">
					<dim>1</dim>
					<dim>8</dim>
					<dim>1</dim>
					<dim>1</dim>
				</port>
			</output>
		</layer>
		<layer id="22" name="/model.2/m.0/cv1/conv/Conv" type="Add" version="opset1">
			<data auto_broadcast="numpy" />
			<input>
				<port id="0" precision="FP32">
					<dim>1</dim>
					<dim>8</dim>
					<dim>160</dim>
					<dim>160</dim>
				</port>
				<port id="1" precision="FP32">
					<dim>1</dim>
					<dim>8</dim>
					<dim>1</dim>
					<dim>1</dim>
				</port>
			</input>
			<output>
				<port id="2" precision="FP32" names="/model.2/m.0/cv1/conv/Conv_output_0">
					<dim>1</dim>
					<dim>8</dim>
					<dim>160</dim>
					<dim>160</dim>
				</port>
			</output>
		</layer>
		<layer id="23" name="/model.2/m.0/cv1/act/Mul" type="Swish" version="opset4">
			<input>
				<port id="0" precision="FP32">
					<dim>1</dim>
					<dim>8</dim>
					<dim>160</dim>
					<dim>160</dim>
				</port>
			</input>
			<output>
				<port id="1" precision="FP32" names="/model.2/m.0/cv1/act/Mul_output_0">
					<dim>1</dim>
					<dim>8</dim>
					<dim>160</dim>
					<dim>160</dim>
				</port>
			</output>
		</layer>
		<layer id="24" name="model.2.m.0.cv2.conv.weight" type="Const" version="opset1">
			<data element_type="f32" shape="8, 8, 3, 3" offset="9016" size="2304" />
			<output>
				<port id="0" precision="FP32" names="model.2.m.0.cv2.conv.weight">
					<dim>8</dim>
					<dim>8</dim>
					<dim>3</dim>
					<dim>3</dim>
				</port>
			</output>
		</layer>
		<layer id="25" name="/model.2/m.0/cv2/conv/Conv/WithoutBiases" type="Convolution" version="opset1">
			<data strides="1, 1" dilations="1, 1" pads_begin="1, 1" pads_end="1, 1" auto_pad="explicit" />
			<input>
				<port id="0" precision="FP32">
					<dim>1</dim>
					<dim>8</dim>
					<dim>160</dim>
					<dim>160</dim>
				</port>
				<port id="1" precision="FP32">
					<dim>8</dim>
					<dim>8</dim>
					<dim>3</dim>
					<dim>3</dim>
				</port>
			</input>
			<output>
				<port id="2" precision="FP32">
					<dim>1</dim>
					<dim>8</dim>
					<dim>160</dim>
					<dim>160</dim>
				</port>
			</output>
		</layer>
		<layer id="26" name="Reshape_333" type="Const" version="opset1">
			<data element_type="f32" shape="1, 8, 1, 1" offset="11320" size="32" />
			<output>
				<port id="0" precision="FP32">
					<dim>1</dim>
					<dim>8</dim>
					<dim>1</dim>
					<dim>1</dim>
				</port>
			</output>
		</layer>
		<layer id="27" name="/model.2/m.0/cv2/conv/Conv" type="Add" version="opset1">
			<data auto_broadcast="numpy" />
			<input>
				<port id="0" precision="FP32">
					<dim>1</dim>
					<dim>8</dim>
					<dim>160</dim>
					<dim>160</dim>
				</port>
				<port id="1" precision="FP32">
					<dim>1</dim>
					<dim>8</dim>
					<dim>1</dim>
					<dim>1</dim>
				</port>
			</input>
			<output>
				<port id="2" precision="FP32" names="/model.2/m.0/cv2/conv/Conv_output_0">
					<dim>1</dim>
					<dim>8</dim>
					<dim>160</dim>
					<dim>160</dim>
				</port>
			</output>
		</layer>
		<layer id="28" name="/model.2/m.0/cv2/act/Mul" type="Swish" version="opset4">
			<input>
				<port id="0" precision="FP32">
					<dim>1</dim>
					<dim>8</dim>
					<dim>160</dim>
					<dim>160</dim>
				</port>
			</input>
			<output>
				<port id="1" precision="FP32" names="/model.2/m.0/cv2/act/Mul_output_0">
					<dim>1</dim>
					<dim>8</dim>
					<dim>160</dim>
					<dim>160</dim>
				</port>
			</output>
		</layer>
		<layer id="29" name="/model.2/m.0/Add" type="Add" version="opset1">
			<data auto_broadcast="numpy" />
			<input>
				<port id="0" precision="FP32">
					<dim>1</dim>
					<dim>8</dim>
					<dim>160</dim>
					<dim>160</dim>
				</port>
				<port id="1" precision="FP32">
					<dim>1</dim>
					<dim>8</dim>
					<dim>160</dim>
					<dim>160</dim>
				</port>
			</input>
			<output>
				<port id="2" precision="FP32" names="/model.2/m.0/Add_output_0">
					<dim>1</dim>
					<dim>8</dim>
					<dim>160</dim>
					<dim>160</dim>
				</port>
			</output>
		</layer>
		<layer id="30" name="/model.2/Concat" type="Concat" version="opset1">
			<data axis="1" />
			<input>
				<port id="0" precision="FP32">
					<dim>1</dim>
					<dim>8</dim>
					<dim>160</dim>
					<dim>160</dim>
				</port>
				<port id="1" precision="FP32">
					<dim>1</dim>
					<dim>8</dim>
					<dim>160</dim>
					<dim>160</dim>
				</port>
				<port id="2" precision="FP32">
					<dim>1</dim>
					<dim>8</dim>
					<dim>160</dim>
					<dim>160</dim>
				</port>
			</input>
			<output>
				<port id="3" precision="FP32" names="/model.2/Concat_output_0">
					<dim>1</dim>
					<dim>24</dim>
					<dim>160</dim>
					<dim>160</dim>
				</port>
			</output>
		</layer>
		<layer id="31" name="model.2.cv2.conv.weight" type="Const" version="opset1">
			<data element_type="f32" shape="16, 24, 1, 1" offset="11352" size="1536" />
			<output>
				<port id="0" precision="FP32" names="model.2.cv2.conv.weight">
					<dim>16</dim>
					<dim>24</dim>
					<dim>1</dim>
					<dim>1</dim>
				</port>
			</output>
		</layer>
		<layer id="32" name="/model.2/cv2/conv/Conv/WithoutBiases" type="Convolution" version="opset1">
			<data strides="1, 1" dilations="1, 1" pads_begin="0, 0" pads_end="0, 0" auto_pad="explicit" />
			<input>
				<port id="0" precision="FP32">
					<dim>1</dim>
					<dim>24</dim>
					<dim>160</dim>
					<dim>160</dim>
				</port>
				<port id="1" precision="FP32">
					<dim>16</dim>
					<dim>24</dim>
					<dim>1</dim>
					<dim>1</dim>
				</port>
			</input>
			<output>
				<port id="2" precision="FP32">
					<dim>1</dim>
					<dim>16</dim>
					<dim>160</dim>
					<dim>160</dim>
				</port>
			</output>
		</layer>
		<layer id="33" name="Reshape_385" type="Const" version="opset1">
			<data element_type="f32" shape="1, 16, 1, 1" offset="12888" size="64" />
			<output>
				<port id="0" precision="FP32">
					<dim>1</dim>
					<dim>16</dim>
					<dim>1</dim>
					<dim>1</dim>
				</port>
			</output>
		</layer>
		<layer id="34" name="/model.2/cv2/conv/Conv" type="Add" version="opset1">
			<data auto_broadcast="numpy" />
			<input>
				<port id="0" precision="FP32">
					<dim>1</dim>
					<dim>16</dim>
					<dim>160</dim>
					<dim>160</dim>
				</port>
				<port id="1" precision="FP32">
					<dim>1</dim>
					<dim>16</dim>
					<dim>1</dim>
					<dim>1</dim>
				</port>
			</input>
			<output>
				<port id="2" precision="FP32" names="/model.2/cv2/conv/Conv_output_0">
					<dim>1</dim>
					<dim>16</dim>
					<dim>160</dim>
					<dim>160</dim>
				</port>
			</output>
		</layer>
		<layer id="35" name="/model.2/cv2/act/Mul" type="Swish" version="opset4">
			<input>
				<port id="0" precision="FP32">
					<dim>1</dim>
					<dim>16</dim>
					<dim>160</dim>
					<dim>160</dim>
				</port>
			</input>
			<output>
				<port id="1" precision="FP32" names="/model.2/cv2/act/Mul_output_0">
					<dim>1</dim>
					<dim>16</dim>
					<dim>160</dim>
					<dim>160</dim>
				</port>
			</output>
		</layer>
		<layer id="36" name="model.3.conv.weight" type="Const" version="opset1">
			<data element_type="f32" shape="24, 16, 3, 3" offset="12952" size="13824" />
			<output>
				<port id="0" precision="FP32" names="model.3.conv.weight">
					<dim>24</dim>
					<dim>16</dim>
					<dim>3</dim>
					<dim>3</dim>
				</port>
			</output>
		</layer>
		<layer id="37" name="/model.3/conv/Conv/WithoutBiases" type="Convolution" version="opset1">
			<data strides="2, 2" dilations="1, 1" pads_begin="1, 1" pads_end="1, 1" auto_pad="explicit" />
			<input>
				<port id="0" precision="FP32">
					<dim>1</dim>
					<dim>16</dim>
					<dim>160</dim>
					<dim>160</dim>
				</port>
				<port id="1" precision="FP32">
					<dim>24</dim>
					<dim>16</dim>
					<dim>3</dim>
					<dim>3</dim>
				</port>
			</input>
			<output>
				<port id="2" precision="FP32">
					<dim>1</dim>
					<dim>24</dim>
					<dim>80</dim>
					<dim>80</dim>
				</port>
			</output>
		</layer>
		<layer id="38" name="Reshape_435" type="Const" version="opset1">
			<data element_type="f32" shape="1, 24, 1, 1" offset="26776" size="96" />
			<output>
				<port id="0" precision="FP32">
					<dim>1</dim>
					<dim>24</dim>
					<dim>1</dim>
					<dim>1</dim>
				</port>
			</output>
		</layer>
		<layer id="39" name="/model.3/conv/Conv" type="Add" version="opset1">
			<data auto_broadcast="numpy" />
			<input>
				<port id="0" precision="FP32">
					<dim>1</dim>
					<dim>24</dim>
					<dim>80</dim>
					<dim>80</dim>
				</port>
				<port id="1" precision="FP32">
					<dim>1</dim>
					<dim>24</dim>
					<dim>1</dim>
					<dim>1</dim>
				</port>
			</input>
			<output>
				<port id="2" precision="FP32" names="/model.3/conv/Conv_output_0">
					<dim>1</dim>
					<dim>24</dim>
					<dim>80</dim>
					<dim>80</dim>
				</port>
			</output>
		</layer>
		<layer id="40" name="/model.3/act/Mul" type="Swish" version="opset4">
			<input>
				<port id="0" precision="FP32">
					<dim>1</dim>
					<dim>24</dim>
					<dim>80</dim>
					<dim>80</dim>
				</port>
			</input>
			<output>
				<port id="1" precision="FP32" names="/model.3/act/Mul_output_0">
					<dim>1</dim>
					<dim>24</dim>
					<dim>80</dim>
					<dim>80</dim>
				</port>
			</output>
		</layer>
		<layer id="41" name="model.4.cv1.conv.weight" type="Const" version="opset1">
			<data element_type="f32" shape="24, 24, 1, 1" offset="26872" size="2304" />
			<output>
				<port id="0" precision="FP32" names="model.4.cv1.conv.weight">
					<dim>24</dim>
					<dim>24</dim>
					<dim>1</dim>
					<dim>1</dim>
				</port>
			</output>
		</layer>
		<layer id="42" name="/model.4/cv1/conv/Conv/WithoutBiases" type="Convolution" version="opset1">
			<data strides="1, 1" dilations="1, 1" pads_begin="0, 0" pads_end="0, 0" auto_pad="explicit" />
			<input>
				<port id="0" precision="FP32">
					<dim>1</dim>
					<dim>24</dim>
					<dim>80</dim>
					<dim>80</dim>
				</port>
				<port id="1" precision="FP32">
					<dim>24</dim>
					<dim>24</dim>
					<dim>1</dim>
					<dim>1</dim>
				</port>
			</input>
			<output>
				<port id="2" precision="FP32">
					<dim>1</dim>
					<dim>24</dim>
					<dim>80</dim>
					<dim>80</dim>
				</port>
			</output>
		</layer>
		<layer id="43" name="Reshape_485" type="Const" version="opset1">
			<data element_type="f32" shape="1, 24, 1, 1" offset="29176" size="96" />
			<output>
				<port id="0" precision="FP32">
					<dim>1</dim>
					<dim>24</dim>
					<dim>1</dim>
					<dim>1</dim>
				</port>
			</output>
		</layer>
		<layer id="44" name="/model.4/cv1/conv/Conv" type="Add" version="opset1">
			<data auto_broadcast="numpy" />
			<input>
				<port id="0" precision="FP32">
					<dim>1</dim>
					<dim>24</dim>
					<dim>80</dim>
					<dim>80</dim>
				</port>
				<port id="1" precision="FP32">
					<dim>1</dim>
					<dim>24</dim>
					<dim>1</dim>
					<dim>1</dim>
				</port>
			</input>
			<output>
				<port id="2" precision="FP32" names="/model.4/cv1/conv/Conv_output_0">
					<dim>1</dim>
					<dim>24</dim>
					<dim>80</dim>
					<dim>80</dim>
				</port>
			</output>
		</layer>
		<layer id="45" name="/model.4/cv1/act/Mul" type="Swish" version="opset4">
			<input>
				<port id="0" precision="FP32">
					<dim>1</dim>
					<dim>24</dim>
					<dim>80</dim>
					<dim>80</dim>
				</port>
			</input>
			<output>
				<port id="1" precision="FP32" names="/model.4/cv1/act/Mul_output_0">
					<dim>1</dim>
					<dim>24</dim>
					<dim>80</dim>
					<dim>80</dim>
				</port>
			</output>
		</layer>
		<layer id="46" name="Constant_516" type="Const" version="opset1">
			<data element_type="i64" shape="" offset="6656" size="8" />
			<output>
				<port id="0" precision="I64" />
			</output>
		</layer>
		<layer id="47" name="Constant_28" type="Const" version="opset1">
			<data element_type="i64" shape="2" offset="29272" size="16" />
			<output>
				<port id="0" precision="I64" names="onnx::Split_143">
					<dim>2</dim>
				</port>
			</output>
		</layer>
		<layer id="48" name="/model.4/Split" type="VariadicSplit" version="opset1">
			<input>
				<port id="0" precision="FP32">
					<dim>1</dim>
					<dim>24</dim>
					<dim>80</dim>
					<dim>80</dim>
				</port>
				<port id="1" precision="I64" />
				<port id="2" precision="I64">
					<dim>2</dim>
				</port>
			</input>
			<output>
				<port id="3" precision="FP32" names="/model.4/Split_output_0">
					<dim>1</dim>
					<dim>12</dim>
					<dim>80</dim>
					<dim>80</dim>
				</port>
				<port id="4" precision="FP32" names="/model.4/Split_output_1">
					<dim>1</dim>
					<dim>12</dim>
					<dim>80</dim>
					<dim>80</dim>
				</port>
			</output>
		</layer>
		<layer id="49" name="model.4.m.0.cv1.conv.weight" type="Const" version="opset1">
			<data element_type="f32" shape="12, 12, 3, 3" offset="29288" size="5184" />
			<output>
				<port id="0" precision="FP32" names="model.4.m.0.cv1.conv.weight">
					<dim>12</dim>
					<dim>12</dim>
					<dim>3</dim>
					<dim>3</dim>
				</port>
			</output>
		</layer>
		<layer id="50" name="/model.4/m.0/cv1/conv/Conv/WithoutBiases" type="Convolution" version="opset1">
			<data strides="1, 1" dilations="1, 1" pads_begin="1, 1" pads_end="1, 1" auto_pad="explicit" />
			<input>
				<port id="0" precision="FP32">
					<dim>1</dim>
					<dim>12</dim>
					<dim>80</dim>
					<dim>80</dim>
				</port>
				<port id="1" precision="FP32">
					<dim>12</dim>
					<dim>12</dim>
					<dim>3</dim>
					<dim>3</dim>
				</port>
			</input>
			<output>
				<port id="2" precision="FP32">
					<dim>1</dim>
					<dim>12</dim>
					<dim>80</dim>
					<dim>80</dim>
				</port>
			</output>
		</layer>
		<layer id="51" name="Reshape_538" type="Const" version="opset1">
			<data element_type="f32" shape="1, 12, 1, 1" offset="34472" size="48" />
			<output>
				<port id="0" precision="FP32">
					<dim>1</dim>
					<dim>12</dim>
					<dim>1</dim>
					<dim>1</dim>
				</port>
			</output>
		</layer>
		<layer id="52" name="/model.4/m.0/cv1/conv/Conv" type="Add" version="opset1">
			<data auto_broadcast="numpy" />
			<input>
				<port id="0" precision="FP32">
					<dim>1</dim>
					<dim>12</dim>
					<dim>80</dim>
					<dim>80</dim>
				</port>
				<port id="1" precision="FP32">
					<dim>1</dim>
					<dim>12</dim>
					<dim>1</dim>
					<dim>1</dim>
				</port>
			</input>
			<output>
				<port id="2" precision="FP32" names="/model.4/m.0/cv1/conv/Conv_output_0">
					<dim>1</dim>
					<dim>12</dim>
					<dim>80</dim>
					<dim>80</dim>
				</port>
			</output>
		</layer>
		<layer id="53" name="/model.4/m.0/cv1/act/Mul" type="Swish" version="opset4">
			<input>
				<port id="0" precision="FP32">
					<dim>1</dim>
					<dim>12</dim>
					<dim>80</dim>
					<dim>80</dim>
				</port>
			</input>
			<output>
				<port id="1" precision="FP32" names="/model.4/m.0/cv1/act/Mul_output_0">
					<dim>1</dim>
					<dim>12</dim>
					<dim>80</dim>
					<dim>80</dim>
				</port>
			</output>
		</layer>
		<layer id="54" name="model.4.m.0.cv2.conv.weight" type="Const" version="opset1">
			<data element_type="f32" shape="12, 12, 3, 3" offset="34520" size="5184" />
			<output>
				<port id="0" precision="FP32" names="model.4.m.0.cv2.conv.weight">
					<dim>12</dim>
					<dim>12</dim>
					<dim>3</dim>
					<dim>3</dim>
				</port>
			</output>
		</layer>
		<layer id="55" name="/model.4/m.0/cv2/conv/Conv/WithoutBiases" type="Convolution" version="opset1">
			<data strides="1, 1" dilations="1, 1" pads_begin="1, 1" pads_end="1, 1" auto_pad="explicit" />
			<input>
				<port id="0" precision="FP32">
					<dim>1</dim>
					<dim>12</dim>
					<dim>80</dim>
					<dim>80</dim>
				</port>
				<port id="1" precision="FP32">
					<dim>12</dim>
					<dim>12</dim>
					<dim>3</dim>
					<dim>3</dim>
				</port>
			</input>
			<output>
				<port id="2" precision="FP32">
					<dim>1</dim>
					<dim>12</dim>
					<dim>80</dim>
					<dim>80</dim>
				</port>
			</output>
		</layer>
		<layer id="56" name="Reshape_588" type="Const" version="opset1">
			<data element_type="f32" shape="1, 12, 1, 1" offset="39704" size="48" />
			<output>
				<port id="0" precision="FP32">
					<dim>1</dim>
					<dim>12</dim>
					<dim>1</dim>
					<dim>1</dim>
				</port>
			</output>
		</layer>
		<layer id="57" name="/model.4/m.0/cv2/conv/Conv" type="Add" version="opset1">
			<data auto_broadcast="numpy" />
			<input>
				<port id="0" precision="FP32">
					<dim>1</dim>
					<dim>12</dim>
					<dim>80</dim>
					<dim>80</dim>
				</port>
				<port id="1" precision="FP32">
					<dim>1</dim>
					<dim>12</dim>
					<dim>1</dim>
					<dim>1</dim>
				</port>
			</input>
			<output>
				<port id="2" precision="FP32" names="/model.4/m.0/cv2/conv/Conv_output_0">
					<dim>1</dim>
					<dim>12</dim>
					<dim>80</dim>
					<dim>80</dim>
				</port>
			</output>
		</layer>
		<layer id="58" name="/model.4/m.0/cv2/act/Mul" type="Swish" version="opset4">
			<input>
				<port id="0" precision="FP32">
					<dim>1</dim>
					<dim>12</dim>
					<dim>80</dim>
					<dim>80</dim>
				</port>
			</input>
			<output>
				<port id="1" precision="FP32" names="/model.4/m.0/cv2/act/Mul_output_0">
					<dim>1</dim>
					<dim>12</dim>
					<dim>80</dim>
					<dim>80</dim>
				</port>
			</output>
		</layer>
		<layer id="59" name="/model.4/m.0/Add" type="Add" version="opset1">
			<data auto_broadcast="numpy" />
			<input>
				<port id="0" precision="FP32">
					<dim>1</dim>
					<dim>12</dim>
					<dim>80</dim>
					<dim>80</dim>
				</port>
				<port id="1" precision="FP32">
					<dim>1</dim>
					<dim>12</dim>
					<dim>80</dim>
					<dim>80</dim>
				</port>
			</input>
			<output>
				<port id="2" precision="FP32" names="/model.4/m.0/Add_output_0">
					<dim>1</dim>
					<dim>12</dim>
					<dim>80</dim>
					<dim>80</dim>
				</port>
			</output>
		</layer>
		<layer id="60" name="model.4.m.1.cv1.conv.weight" type="Const" version="opset1">
			<data element_type="f32" shape="12, 12, 3, 3" offset="39752" size="5184" />
			<output>
				<port id="0" precision="FP32" names="model.4.m.1.cv1.conv.weight">
					<dim>12</dim>
					<dim>12</dim>
					<dim>3</dim>
					<dim>3</dim>
				</port>
			</output>
		</layer>
		<layer id="61" name="/model.4/m.1/cv1/conv/Conv/WithoutBiases" type="Convolution" version="opset1">
			<data strides="1, 1" dilations="1, 1" pads_begin="1, 1" pads_end="1, 1" auto_pad="explicit" />
			<input>
				<port id="0" precision="FP32">
					<dim>1</dim>
					<dim>12</dim>
					<dim>80</dim>
					<dim>80</dim>
				</port>
				<port id="1" precision="FP32">
					<dim>12</dim>
					<dim>12</dim>
					<dim>3</dim>
					<dim>3</dim>
				</port>
			</input>
			<output>
				<port id="2" precision="FP32">
					<dim>1</dim>
					<dim>12</dim>
					<dim>80</dim>
					<dim>80</dim>
				</port>
			</output>
		</layer>
		<layer id="62" name="Reshape_639" type="Const" version="opset1">
			<data element_type="f32" shape="1, 12, 1, 1" offset="44936" size="48" />
			<output>
				<port id="0" precision="FP32">
					<dim>1</dim>
					<dim>12</dim>
					<dim>1</dim>
					<dim>1</dim>
				</port>
			</output>
		</layer>
		<layer id="63" name="/model.4/m.1/cv1/conv/Conv" type="Add" version="opset1">
			<data auto_broadcast="numpy" />
			<input>
				<port id="0" precision="FP32">
					<dim>1</dim>
					<dim>12</dim>
					<dim>80</dim>
					<dim>80</dim>
				</port>
				<port id="1" precision="FP32">
					<dim>1</dim>
					<dim>12</dim>
					<dim>1</dim>
					<dim>1</dim>
				</port>
			</input>
			<output>
				<port id="2" precision="FP32" names="/model.4/m.1/cv1/conv/Conv_output_0">
					<dim>1</dim>
					<dim>12</dim>
					<dim>80</dim>
					<dim>80</dim>
				</port>
			</output>
		</layer>
		<layer id="64" name="/model.4/m.1/cv1/act/Mul" type="Swish" version="opset4">
			<input>
				<port id="0" precision="FP32">
					<dim>1</dim>
					<dim>12</dim>
					<dim>80</dim>
					<dim>80</dim>
				</port>
			</input>
			<output>
				<port id="1" precision="FP32" names="/model.4/m.1/cv1/act/Mul_output_0">
					<dim>1</dim>
					<dim>12</dim>
					<dim>80</dim>
					<dim>80</dim>
				</port>
			</output>
		</layer>
		<layer id="65" name="model.4.m.1.cv2.conv.weight" type="Const" version="opset1">
			<data element_type="f32" shape="12, 12, 3, 3" offset="44984" size="5184" />
			<output>
				<port id="0" precision="FP32" names="model.4.m.1.cv2.conv.weight">
					<dim>12</dim>
					<dim>12</dim>
					<dim>3</dim>
					<dim>3</dim>
				</port>
			</output>
		</layer>
		<layer id="66" name="/model.4/m.1/cv2/conv/Conv/WithoutBiases" type="Convolution" version="opset1">
			<data strides="1, 1" dilations="1, 1" pads_begin="1, 1" pads_end="1, 1" auto_pad="explicit" />
			<input>
				<port id="0" precision="FP32">
					<dim>1</dim>
					<dim>12</dim>
					<dim>80</dim>
					<dim>80</dim>
				</port>
				<port id="1" precision="FP32">
					<dim>12</dim>
					<dim>12</dim>
					<dim>3</dim>
					<dim>3</dim>
				</port>
			</input>
			<output>
				<port id="2" precision="FP32">
					<dim>1</dim>
					<dim>12</dim>
					<dim>80</dim>
					<dim>80</dim>
				</port>
			</output>
		</layer>
		<layer id="67" name="Reshape_689" type="Const" version="opset1">
			<data element_type="f32" shape="1, 12, 1, 1" offset="50168" size="48" />
			<output>
				<port id="0" precision="FP32">
					<dim>1</dim>
					<dim>12</dim>
					<dim>1</dim>
					<dim>1</dim>
				</port>
			</output>
		</layer>
		<layer id="68" name="/model.4/m.1/cv2/conv/Conv" type="Add" version="opset1">
			<data auto_broadcast="numpy" />
			<input>
				<port id="0" precision="FP32">
					<dim>1</dim>
					<dim>12</dim>
					<dim>80</dim>
					<dim>80</dim>
				</port>
				<port id="1" precision="FP32">
					<dim>1</dim>
					<dim>12</dim>
					<dim>1</dim>
					<dim>1</dim>
				</port>
			</input>
			<output>
				<port id="2" precision="FP32" names="/model.4/m.1/cv2/conv/Conv_output_0">
					<dim>1</dim>
					<dim>12</dim>
					<dim>80</dim>
					<dim>80</dim>
				</port>
			</output>
		</layer>
		<layer id="69" name="/model.4/m.1/cv2/act/Mul" type="Swish" version="opset4">
			<input>
				<port id="0" precision="FP32">
					<dim>1</dim>
					<dim>12</dim>
					<dim>80</dim>
					<dim>80</dim>
				</port>
			</input>
			<output>
				<port id="1" precision="FP32" names="/model.4/m.1/cv2/act/Mul_output_0">
					<dim>1</dim>
					<dim>12</dim>
					<dim>80</dim>
					<dim>80</dim>
				</port>
			</output>
		</layer>
		<layer id="70" name="/model.4/m.1/Add" type="Add" version="opset1">
			<data auto_broadcast="numpy" />
			<input>
				<port id="0" precision="FP32">
					<dim>1</dim>
					<dim>12</dim>
					<dim>80</dim>
					<dim>80</dim>
				</port>
				<port id="1" precision="FP32">
					<dim>1</dim>
					<dim>12</dim>
					<dim>80</dim>
					<dim>80</dim>
				</port>
			</input>
			<output>
				<port id="2" precision="FP32" names="/model.4/m.1/Add_output_0">
					<dim>1</dim>
					<dim>12</dim>
					<dim>80</dim>
					<dim>80</dim>
				</port>
			</output>
		</layer>
		<layer id="71" name="/model.4/Concat" type="Concat" version="opset1">
			<data axis="1" />
			<input>
				<port id="0" precision="FP32">
					<dim>1</dim>
					<dim>12</dim>
					<dim>80</dim>
					<dim>80</dim>
				</port>
				<port id="1" precision="FP32">
					<dim>1</dim>
					<dim>12</dim>
					<dim>80</dim>
					<dim>80</dim>
				</port>
				<port id="2" precision="FP32">
					<dim>1</dim>
					<dim>12</dim>
					<dim>80</dim>
					<dim>80</dim>
				</port>
				<port id="3" precision="FP32">
					<dim>1</dim>
					<dim>12</dim>
					<dim>80</dim>
					<dim>80</dim>
				</port>
			</input>
			<output>
				<port id="4" precision="FP32" names="/model.4/Concat_output_0">
					<dim>1</dim>
					<dim>48</dim>
					<dim>80</dim>
					<dim>80</dim>
				</port>
			</output>
		</layer>
		<layer id="72" name="model.4.cv2.conv.weight" type="Const" version="opset1">
			<data element_type="f32" shape="24, 48, 1, 1" offset="50216" size="4608" />
			<output>
				<port id="0" precision="FP32" names="model.4.cv2.conv.weight">
					<dim>24</dim>
					<dim>48</dim>
					<dim>1</dim>
					<dim>1</dim>
				</port>
			</output>
		</layer>
		<layer id="73" name="/model.4/cv2/conv/Conv/WithoutBiases" type="Convolution" version="opset1">
			<data strides="1, 1" dilations="1, 1" pads_begin="0, 0" pads_end="0, 0" auto_pad="explicit" />
			<input>
				<port id="0" precision="FP32">
					<dim>1</dim>
					<dim>48</dim>
					<dim>80</dim>
					<dim>80</dim>
				</port>
				<port id="1" precision="FP32">
					<dim>24</dim>
					<dim>48</dim>
					<dim>1</dim>
					<dim>1</dim>
				</port>
			</input>
			<output>
				<port id="2" precision="FP32">
					<dim>1</dim>
					<dim>24</dim>
					<dim>80</dim>
					<dim>80</dim>
				</port>
			</output>
		</layer>
		<layer id="74" name="Reshape_741" type="Const" version="opset1">
			<data element_type="f32" shape="1, 24, 1, 1" offset="54824" size="96" />
			<output>
				<port id="0" precision="FP32">
					<dim>1</dim>
					<dim>24</dim>
					<dim>1</dim>
					<dim>1</dim>
				</port>
			</output>
		</layer>
		<layer id="75" name="/model.4/cv2/conv/Conv" type="Add" version="opset1">
			<data auto_broadcast="numpy" />
			<input>
				<port id="0" precision="FP32">
					<dim>1</dim>
					<dim>24</dim>
					<dim>80</dim>
					<dim>80</dim>
				</port>
				<port id="1" precision="FP32">
					<dim>1</dim>
					<dim>24</dim>
					<dim>1</dim>
					<dim>1</dim>
				</port>
			</input>
			<output>
				<port id="2" precision="FP32" names="/model.4/cv2/conv/Conv_output_0">
					<dim>1</dim>
					<dim>24</dim>
					<dim>80</dim>
					<dim>80</dim>
				</port>
			</output>
		</layer>
		<layer id="76" name="/model.4/cv2/act/Mul" type="Swish" version="opset4">
			<input>
				<port id="0" precision="FP32">
					<dim>1</dim>
					<dim>24</dim>
					<dim>80</dim>
					<dim>80</dim>
				</port>
			</input>
			<output>
				<port id="1" precision="FP32" names="/model.4/cv2/act/Mul_output_0">
					<dim>1</dim>
					<dim>24</dim>
					<dim>80</dim>
					<dim>80</dim>
				</port>
			</output>
		</layer>
		<layer id="77" name="model.5.conv.weight" type="Const" version="opset1">
			<data element_type="f32" shape="40, 24, 3, 3" offset="54920" size="34560" />
			<output>
				<port id="0" precision="FP32" names="model.5.conv.weight">
					<dim>40</dim>
					<dim>24</dim>
					<dim>3</dim>
					<dim>3</dim>
				</port>
			</output>
		</layer>
		<layer id="78" name="/model.5/conv/Conv/WithoutBiases" type="Convolution" version="opset1">
			<data strides="2, 2" dilations="1, 1" pads_begin="1, 1" pads_end="1, 1" auto_pad="explicit" />
			<input>
				<port id="0" precision="FP32">
					<dim>1</dim>
					<dim>24</dim>
					<dim>80</dim>
					<dim>80</dim>
				</port>
				<port id="1" precision="FP32">
					<dim>40</dim>
					<dim>24</dim>
					<dim>3</dim>
					<dim>3</dim>
				</port>
			</input>
			<output>
				<port id="2" precision="FP32">
					<dim>1</dim>
					<dim>40</dim>
					<dim>40</dim>
					<dim>40</dim>
				</port>
			</output>
		</layer>
		<layer id="79" name="Reshape_791" type="Const" version="opset1">
			<data element_type="f32" shape="1, 40, 1, 1" offset="89480" size="160" />
			<output>
				<port id="0" precision="FP32">
					<dim>1</dim>
					<dim>40</dim>
					<dim>1</dim>
					<dim>1</dim>
				</port>
			</output>
		</layer>
		<layer id="80" name="/model.5/conv/Conv" type="Add" version="opset1">
			<data auto_broadcast="numpy" />
			<input>
				<port id="0" precision="FP32">
					<dim>1</dim>
					<dim>40</dim>
					<dim>40</dim>
					<dim>40</dim>
				</port>
				<port id="1" precision="FP32">
					<dim>1</dim>
					<dim>40</dim>
					<dim>1</dim>
					<dim>1</dim>
				</port>
			</input>
			<output>
				<port id="2" precision="FP32" names="/model.5/conv/Conv_output_0">
					<dim>1</dim>
					<dim>40</dim>
					<dim>40</dim>
					<dim>40</dim>
				</port>
			</output>
		</layer>
		<layer id="81" name="/model.5/act/Mul" type="Swish" version="opset4">
			<input>
				<port id="0" precision="FP32">
					<dim>1</dim>
					<dim>40</dim>
					<dim>40</dim>
					<dim>40</dim>
				</port>
			</input>
			<output>
				<port id="1" precision="FP32" names="/model.5/act/Mul_output_0">
					<dim>1</dim>
					<dim>40</dim>
					<dim>40</dim>
					<dim>40</dim>
				</port>
			</output>
		</layer>
		<layer id="82" name="model.6.cv1.conv.weight" type="Const" version="opset1">
			<data element_type="f32" shape="40, 40, 1, 1" offset="89640" size="6400" />
			<output>
				<port id="0" precision="FP32" names="model.6.cv1.conv.weight">
					<dim>40</dim>
					<dim>40</dim>
					<dim>1</dim>
					<dim>1</dim>
				</port>
			</output>
		</layer>
		<layer id="83" name="/model.6/cv1/conv/Conv/WithoutBiases" type="Convolution" version="opset1">
			<data strides="1, 1" dilations="1, 1" pads_begin="0, 0" pads_end="0, 0" auto_pad="explicit" />
			<input>
				<port id="0" precision="FP32">
					<dim>1</dim>
					<dim>40</dim>
					<dim>40</dim>
					<dim>40</dim>
				</port>
				<port id="1" precision="FP32">
					<dim>40</dim>
					<dim>40</dim>
					<dim>1</dim>
					<dim>1</dim>
				</port>
			</input>
			<output>
				<port id="2" precision="FP32">
					<dim>1</dim>
					<dim>40</dim>
					<dim>40</dim>
					<dim>40</dim>
				</port>
			</output>
		</layer>
		<layer id="84" name="Reshape_841" type="Const" version="opset1">
			<data element_type="f32" shape="1, 40, 1, 1" offset="96040" size="160" />
			<output>
				<port id="0" precision="FP32">
					<dim>1</dim>
					<dim>40</dim>
					<dim>1</dim>
					<dim>1</dim>
				</port>
			</output>
		</layer>
		<layer id="85" name="/model.6/cv1/conv/Conv" type="Add" version="opset1">
			<data auto_broadcast="numpy" />
			<input>
				<port id="0" precision="FP32">
					<dim>1</dim>
					<dim>40</dim>
					<dim>40</dim>
					<dim>40</dim>
				</port>
				<port id="1" precision="FP32">
					<dim>1</dim>
					<dim>40</dim>
					<dim>1</dim>
					<dim>1</dim>
				</port>
			</input>
			<output>
				<port id="2" precision="FP32" names="/model.6/cv1/conv/Conv_output_0">
					<dim>1</dim>
					<dim>40</dim>
					<dim>40</dim>
					<dim>40</dim>
				</port>
			</output>
		</layer>
		<layer id="86" name="/model.6/cv1/act/Mul" type="Swish" version="opset4">
			<input>
				<port id="0" precision="FP32">
					<dim>1</dim>
					<dim>40</dim>
					<dim>40</dim>
					<dim>40</dim>
				</port>
			</input>
			<output>
				<port id="1" precision="FP32" names="/model.6/cv1/act/Mul_output_0">
					<dim>1</dim>
					<dim>40</dim>
					<dim>40</dim>
					<dim>40</dim>
				</port>
			</output>
		</layer>
		<layer id="87" name="Constant_872" type="Const" version="opset1">
			<data element_type="i64" shape="" offset="6656" size="8" />
			<output>
				<port id="0" precision="I64" />
			</output>
		</layer>
		<layer id="88" name="Constant_54" type="Const" version="opset1">
			<data element_type="i64" shape="2" offset="96200" size="16" />
			<output>
				<port id="0" precision="I64" names="onnx::Split_170">
					<dim>2</dim>
				</port>
			</output>
		</layer>
		<layer id="89" name="/model.6/Split" type="VariadicSplit" version="opset1">
			<input>
				<port id="0" precision="FP32">
					<dim>1</dim>
					<dim>40</dim>
					<dim>40</dim>
					<dim>40</dim>
				</port>
				<port id="1" precision="I64" />
				<port id="2" precision="I64">
					<dim>2</dim>
				</port>
			</input>
			<output>
				<port id="3" precision="FP32" names="/model.6/Split_output_0">
					<dim>1</dim>
					<dim>20</dim>
					<dim>40</dim>
					<dim>40</dim>
				</port>
				<port id="4" precision="FP32" names="/model.6/Split_output_1">
					<dim>1</dim>
					<dim>20</dim>
					<dim>40</dim>
					<dim>40</dim>
				</port>
			</output>
		</layer>
		<layer id="90" name="model.6.m.0.cv1.conv.weight" type="Const" version="opset1">
			<data element_type="f32" shape="20, 20, 3, 3" offset="96216" size="14400" />
			<output>
				<port id="0" precision="FP32" names="model.6.m.0.cv1.conv.weight">
					<dim>20</dim>
					<dim>20</dim>
					<dim>3</dim>
					<dim>3</dim>
				</port>
			</output>
		</layer>
		<layer id="91" name="/model.6/m.0/cv1/conv/Conv/WithoutBiases" type="Convolution" version="opset1">
			<data strides="1, 1" dilations="1, 1" pads_begin="1, 1" pads_end="1, 1" auto_pad="explicit" />
			<input>
				<port id="0" precision="FP32">
					<dim>1</dim>
					<dim>20</dim>
					<dim>40</dim>
					<dim>40</dim>
				</port>
				<port id="1" precision="FP32">
					<dim>20</dim>
					<dim>20</dim>
					<dim>3</dim>
					<dim>3</dim>
				</port>
			</input>
			<output>
				<port id="2" precision="FP32">
					<dim>1</dim>
					<dim>20</dim>
					<dim>40</dim>
					<dim>40</dim>
				</port>
			</output>
		</layer>
		<layer id="92" name="Reshape_894" type="Const" version="opset1">
			<data element_type="f32" shape="1, 20, 1, 1" offset="110616" size="80" />
			<output>
				<port id="0" precision="FP32">
					<dim>1</dim>
					<dim>20</dim>
					<dim>1</dim>
					<dim>1</dim>
				</port>
			</output>
		</layer>
		<layer id="93" name="/model.6/m.0/cv1/conv/Conv" type="Add" version="opset1">
			<data auto_broadcast="numpy" />
			<input>
				<port id="0" precision="FP32">
					<dim>1</dim>
					<dim>20</dim>
					<dim>40</dim>
					<dim>40</dim>
				</port>
				<port id="1" precision="FP32">
					<dim>1</dim>
					<dim>20</dim>
					<dim>1</dim>
					<dim>1</dim>
				</port>
			</input>
			<output>
				<port id="2" precision="FP32" names="/model.6/m.0/cv1/conv/Conv_output_0">
					<dim>1</dim>
					<dim>20</dim>
					<dim>40</dim>
					<dim>40</dim>
				</port>
			</output>
		</layer>
		<layer id="94" name="/model.6/m.0/cv1/act/Mul" type="Swish" version="opset4">
			<input>
				<port id="0" precision="FP32">
					<dim>1</dim>
					<dim>20</dim>
					<dim>40</dim>
					<dim>40</dim>
				</port>
			</input>
			<output>
				<port id="1" precision="FP32" names="/model.6/m.0/cv1/act/Mul_output_0">
					<dim>1</dim>
					<dim>20</dim>
					<dim>40</dim>
					<dim>40</dim>
				</port>
			</output>
		</layer>
		<layer id="95" name="model.6.m.0.cv2.conv.weight" type="Const" version="opset1">
			<data element_type="f32" shape="20, 20, 3, 3" offset="110696" size="14400" />
			<output>
				<port id="0" precision="FP32" names="model.6.m.0.cv2.conv.weight">
					<dim>20</dim>
					<dim>20</dim>
					<dim>3</dim>
					<dim>3</dim>
				</port>
			</output>
		</layer>
		<layer id="96" name="/model.6/m.0/cv2/conv/Conv/WithoutBiases" type="Convolution" version="opset1">
			<data strides="1, 1" dilations="1, 1" pads_begin="1, 1" pads_end="1, 1" auto_pad="explicit" />
			<input>
				<port id="0" precision="FP32">
					<dim>1</dim>
					<dim>20</dim>
					<dim>40</dim>
					<dim>40</dim>
				</port>
				<port id="1" precision="FP32">
					<dim>20</dim>
					<dim>20</dim>
					<dim>3</dim>
					<dim>3</dim>
				</port>
			</input>
			<output>
				<port id="2" precision="FP32">
					<dim>1</dim>
					<dim>20</dim>
					<dim>40</dim>
					<dim>40</dim>
				</port>
			</output>
		</layer>
		<layer id="97" name="Reshape_944" type="Const" version="opset1">
			<data element_type="f32" shape="1, 20, 1, 1" offset="125096" size="80" />
			<output>
				<port id="0" precision="FP32">
					<dim>1</dim>
					<dim>20</dim>
					<dim>1</dim>
					<dim>1</dim>
				</port>
			</output>
		</layer>
		<layer id="98" name="/model.6/m.0/cv2/conv/Conv" type="Add" version="opset1">
			<data auto_broadcast="numpy" />
			<input>
				<port id="0" precision="FP32">
					<dim>1</dim>
					<dim>20</dim>
					<dim>40</dim>
					<dim>40</dim>
				</port>
				<port id="1" precision="FP32">
					<dim>1</dim>
					<dim>20</dim>
					<dim>1</dim>
					<dim>1</dim>
				</port>
			</input>
			<output>
				<port id="2" precision="FP32" names="/model.6/m.0/cv2/conv/Conv_output_0">
					<dim>1</dim>
					<dim>20</dim>
					<dim>40</dim>
					<dim>40</dim>
				</port>
			</output>
		</layer>
		<layer id="99" name="/model.6/m.0/cv2/act/Mul" type="Swish" version="opset4">
			<input>
				<port id="0" precision="FP32">
					<dim>1</dim>
					<dim>20</dim>
					<dim>40</dim>
					<dim>40</dim>
				</port>
			</input>
			<output>
				<port id="1" precision="FP32" names="/model.6/m.0/cv2/act/Mul_output_0">
					<dim>1</dim>
					<dim>20</dim>
					<dim>40</dim>
					<dim>40</dim>
				</port>
			</output>
		</layer>
		<layer id="100" name="/model.6/m.0/Add" type="Add" version="opset1">
			<data auto_broadcast="numpy" />
			<input>
				<port id="0" precision="FP32">
					<dim>1</dim>
					<dim>20</dim>
					<dim>40</dim>
					<dim>40</dim>
				</port>
				<port id="1" precision="FP32">
					<dim>1</dim>
					<dim>20</dim>
					<dim>40</dim>
					<dim>40</dim>
				</port>
			</input>
			<output>
				<port id="2" precision="FP32" names="/model.6/m.0/Add_output_0">
					<dim>1</dim>
					<dim>20</dim>
					<dim>40</dim>
					<dim>40</dim>
				</port>
			</output>
		</layer>
		<layer id="101" name="model.6.m.1.cv1.conv.weight" type="Const" version="opset1">
			<data element_type="f32" shape="20, 20, 3, 3" offset="125176" size="14400" />
			<output>
				<port id="0" precision="FP32" names="model.6.m.1.cv1.conv.weight">
					<dim>20</dim>
					<dim>20</dim>
					<dim>3</dim>
					<dim>3</dim>
				</port>
			</output>
		</layer>
		<layer id="102" name="/model.6/m.1/cv1/conv/Conv/WithoutBiases" type="Convolution" version="opset1">
			<data strides="1, 1" dilations="1, 1" pads_begin="1, 1" pads_end="1, 1" auto_pad="explicit" />
			<input>
				<port id="0" precision="FP32">
					<dim>1</dim>
					<dim>20</dim>
					<dim>40</dim>
					<dim>40</dim>
				</port>
				<port id="1" precision="FP32">
					<dim>20</dim>
					<dim>20</dim>
					<dim>3</dim>
					<dim>3</dim>
				</port>
			</input>
			<output>
				<port id="2" precision="FP32">
					<dim>1</dim>
					<dim>20</dim>
					<dim>40</dim>
					<dim>40</dim>
				</port>
			</output>
		</layer>
		<layer id="103" name="Reshape_995" type="Const" version="opset1">
			<data element_type="f32" shape="1, 20, 1, 1" offset="139576" size="80" />
			<output>
				<port id="0" precision="FP32">
					<dim>1</dim>
					<dim>20</dim>
					<dim>1</dim>
					<dim>1</dim>
				</port>
			</output>
		</layer>
		<layer id="104" name="/model.6/m.1/cv1/conv/Conv" type="Add" version="opset1">
			<data auto_broadcast="numpy" />
			<input>
				<port id="0" precision="FP32">
					<dim>1</dim>
					<dim>20</dim>
					<dim>40</dim>
					<dim>40</dim>
				</port>
				<port id="1" precision="FP32">
					<dim>1</dim>
					<dim>20</dim>
					<dim>1</dim>
					<dim>1</dim>
				</port>
			</input>
			<output>
				<port id="2" precision="FP32" names="/model.6/m.1/cv1/conv/Conv_output_0">
					<dim>1</dim>
					<dim>20</dim>
					<dim>40</dim>
					<dim>40</dim>
				</port>
			</output>
		</layer>
		<layer id="105" name="/model.6/m.1/cv1/act/Mul" type="Swish" version="opset4">
			<input>
				<port id="0" precision="FP32">
					<dim>1</dim>
					<dim>20</dim>
					<dim>40</dim>
					<dim>40</dim>
				</port>
			</input>
			<output>
				<port id="1" precision="FP32" names="/model.6/m.1/cv1/act/Mul_output_0">
					<dim>1</dim>
					<dim>20</dim>
					<dim>40</dim>
					<dim>40</dim>
				</port>
			</output>
		</layer>
		<layer id="106" name="model.6.m.1.cv2.conv.weight" type="Const" version="opset1">
			<data element_type="f32" shape="20, 20, 3, 3" offset="139656" size="14400" />
			<output>
				<port id="0" precision="FP32" names="model.6.m.1.cv2.conv.weight">
					<dim>20</dim>
					<dim>20</dim>
					<dim>3</dim>
					<dim>3</dim>
				</port>
			</output>
		</layer>
		<layer id="107" name="/model.6/m.1/cv2/conv/Conv/WithoutBiases" type="Convolution" version="opset1">
			<data strides="1, 1" dilations="1, 1" pads_begin="1, 1" pads_end="1, 1" auto_pad="explicit" />
			<input>
				<port id="0" precision="FP32">
					<dim>1</dim>
					<dim>20</dim>
					<dim>40</dim>
					<dim>40</dim>
				</port>
				<port id="1" precision="FP32">
					<dim>20</dim>
					<dim>20</dim>
					<dim>3</dim>
					<dim>3</dim>
				</port>
			</input>
			<output>
				<port id="2" precision="FP32">
					<dim>1</dim>
					<dim>20</dim>
					<dim>40</dim>
					<dim>40</dim>
				</port>
			</output>
		</layer>
		<layer id="108" name="Reshape_1045" type="Const" version="opset1">
			<data element_type="f32" shape="1, 20, 1, 1" offset="154056" size="80" />
			<output>
				<port id="0" precision="FP32">
					<dim>1</dim>
					<dim>20</dim>
					<dim>1</dim>
					<dim>1</dim>
				</port>
			</output>
		</layer>
		<layer id="109" name="/model.6/m.1/cv2/conv/Conv" type="Add" version="opset1">
			<data auto_broadcast="numpy" />
			<input>
				<port id="0" precision="FP32">
					<dim>1</dim>
					<dim>20</dim>
					<dim>40</dim>
					<dim>40</dim>
				</port>
				<port id="1" precision="FP32">
					<dim>1</dim>
					<dim>20</dim>
					<dim>1</dim>
					<dim>1</dim>
				</port>
			</input>
			<output>
				<port id="2" precision="FP32" names="/model.6/m.1/cv2/conv/Conv_output_0">
					<dim>1</dim>
					<dim>20</dim>
					<dim>40</dim>
					<dim>40</dim>
				</port>
			</output>
		</layer>
		<layer id="110" name="/model.6/m.1/cv2/act/Mul" type="Swish" version="opset4">
			<input>
				<port id="0" precision="FP32">
					<dim>1</dim>
					<dim>20</dim>
					<dim>40</dim>
					<dim>40</dim>
				</port>
			</input>
			<output>
				<port id="1" precision="FP32" names="/model.6/m.1/cv2/act/Mul_output_0">
					<dim>1</dim>
					<dim>20</dim>
					<dim>40</dim>
					<dim>40</dim>
				</port>
			</output>
		</layer>
		<layer id="111" name="/model.6/m.1/Add" type="Add" version="opset1">
			<data auto_broadcast="numpy" />
			<input>
				<port id="0" precision="FP32">
					<dim>1</dim>
					<dim>20</dim>
					<dim>40</dim>
					<dim>40</dim>
				</port>
				<port id="1" precision="FP32">
					<dim>1</dim>
					<dim>20</dim>
					<dim>40</dim>
					<dim>40</dim>
				</port>
			</input>
			<output>
				<port id="2" precision="FP32" names="/model.6/m.1/Add_output_0">
					<dim>1</dim>
					<dim>20</dim>
					<dim>40</dim>
					<dim>40</dim>
				</port>
			</output>
		</layer>
		<layer id="112" name="/model.6/Concat" type="Concat" version="opset1">
			<data axis="1" />
			<input>
				<port id="0" precision="FP32">
					<dim>1</dim>
					<dim>20</dim>
					<dim>40</dim>
					<dim>40</dim>
				</port>
				<port id="1" precision="FP32">
					<dim>1</dim>
					<dim>20</dim>
					<dim>40</dim>
					<dim>40</dim>
				</port>
				<port id="2" precision="FP32">
					<dim>1</dim>
					<dim>20</dim>
					<dim>40</dim>
					<dim>40</dim>
				</port>
				<port id="3" precision="FP32">
					<dim>1</dim>
					<dim>20</dim>
					<dim>40</dim>
					<dim>40</dim>
				</port>
			</input>
			<output>
				<port id="4" precision="FP32" names="/model.6/Concat_output_0">
					<dim>1</dim>
					<dim>80</dim>
					<dim>40</dim>
					<dim>40</dim>
				</port>
			</output>
		</layer>
		<layer id="113" name="model.6.cv2.conv.weight" type="Const" version="opset1">
			<data element_type="f32" shape="40, 80, 1, 1" offset="154136" size="12800" />
			<output>
				<port id="0" precision="FP32" names="model.6.cv2.conv.weight">
					<dim>40</dim>
					<dim>80</dim>
					<dim>1</dim>
					<dim>1</dim>
				</port>
			</output>
		</layer>
		<layer id="114" name="/model.6/cv2/conv/Conv/WithoutBiases" type="Convolution" version="opset1">
			<data strides="1, 1" dilations="1, 1" pads_begin="0, 0" pads_end="0, 0" auto_pad="explicit" />
			<input>
				<port id="0" precision="FP32">
					<dim>1</dim>
					<dim>80</dim>
					<dim>40</dim>
					<dim>40</dim>
				</port>
				<port id="1" precision="FP32">
					<dim>40</dim>
					<dim>80</dim>
					<dim>1</dim>
					<dim>1</dim>
				</port>
			</input>
			<output>
				<port id="2" precision="FP32">
					<dim>1</dim>
					<dim>40</dim>
					<dim>40</dim>
					<dim>40</dim>
				</port>
			</output>
		</layer>
		<layer id="115" name="Reshape_1097" type="Const" version="opset1">
			<data element_type="f32" shape="1, 40, 1, 1" offset="166936" size="160" />
			<output>
				<port id="0" precision="FP32">
					<dim>1</dim>
					<dim>40</dim>
					<dim>1</dim>
					<dim>1</dim>
				</port>
			</output>
		</layer>
		<layer id="116" name="/model.6/cv2/conv/Conv" type="Add" version="opset1">
			<data auto_broadcast="numpy" />
			<input>
				<port id="0" precision="FP32">
					<dim>1</dim>
					<dim>40</dim>
					<dim>40</dim>
					<dim>40</dim>
				</port>
				<port id="1" precision="FP32">
					<dim>1</dim>
					<dim>40</dim>
					<dim>1</dim>
					<dim>1</dim>
				</port>
			</input>
			<output>
				<port id="2" precision="FP32" names="/model.6/cv2/conv/Conv_output_0">
					<dim>1</dim>
					<dim>40</dim>
					<dim>40</dim>
					<dim>40</dim>
				</port>
			</output>
		</layer>
		<layer id="117" name="/model.6/cv2/act/Mul" type="Swish" version="opset4">
			<input>
				<port id="0" precision="FP32">
					<dim>1</dim>
					<dim>40</dim>
					<dim>40</dim>
					<dim>40</dim>
				</port>
			</input>
			<output>
				<port id="1" precision="FP32" names="/model.6/cv2/act/Mul_output_0">
					<dim>1</dim>
					<dim>40</dim>
					<dim>40</dim>
					<dim>40</dim>
				</port>
			</output>
		</layer>
		<layer id="118" name="model.7.conv.weight" type="Const" version="opset1">
			<data element_type="f32" shape="72, 40, 3, 3" offset="167096" size="103680" />
			<output>
				<port id="0" precision="FP32" names="model.7.conv.weight">
					<dim>72</dim>
					<dim>40</dim>
					<dim>3</dim>
					<dim>3</dim>
				</port>
			</output>
		</layer>
		<layer id="119" name="/model.7/conv/Conv/WithoutBiases" type="Convolution" version="opset1">
			<data strides="2, 2" dilations="1, 1" pads_begin="1, 1" pads_end="1, 1" auto_pad="explicit" />
			<input>
				<port id="0" precision="FP32">
					<dim>1</dim>
					<dim>40</dim>
					<dim>40</dim>
					<dim>40</dim>
				</port>
				<port id="1" precision="FP32">
					<dim>72</dim>
					<dim>40</dim>
					<dim>3</dim>
					<dim>3</dim>
				</port>
			</input>
			<output>
				<port id="2" precision="FP32">
					<dim>1</dim>
					<dim>72</dim>
					<dim>20</dim>
					<dim>20</dim>
				</port>
			</output>
		</layer>
		<layer id="120" name="Reshape_1147" type="Const" version="opset1">
			<data element_type="f32" shape="1, 72, 1, 1" offset="270776" size="288" />
			<output>
				<port id="0" precision="FP32">
					<dim>1</dim>
					<dim>72</dim>
					<dim>1</dim>
					<dim>1</dim>
				</port>
			</output>
		</layer>
		<layer id="121" name="/model.7/conv/Conv" type="Add" version="opset1">
			<data auto_broadcast="numpy" />
			<input>
				<port id="0" precision="FP32">
					<dim>1</dim>
					<dim>72</dim>
					<dim>20</dim>
					<dim>20</dim>
				</port>
				<port id="1" precision="FP32">
					<dim>1</dim>
					<dim>72</dim>
					<dim>1</dim>
					<dim>1</dim>
				</port>
			</input>
			<output>
				<port id="2" precision="FP32" names="/model.7/conv/Conv_output_0">
					<dim>1</dim>
					<dim>72</dim>
					<dim>20</dim>
					<dim>20</dim>
				</port>
			</output>
		</layer>
		<layer id="122" name="/model.7/act/Mul" type="Swish" version="opset4">
			<input>
				<port id="0" precision="FP32">
					<dim>1</dim>
					<dim>72</dim>
					<dim>20</dim>
					<dim>20</dim>
				</port>
			</input>
			<output>
				<port id="1" precision="FP32" names="/model.7/act/Mul_output_0">
					<dim>1</dim>
					<dim>72</dim>
					<dim>20</dim>
					<dim>20</dim>
				</port>
			</output>
		</layer>
		<layer id="123" name="model.8.cv1.conv.weight" type="Const" version="opset1">
			<data element_type="f32" shape="72, 72, 1, 1" offset="271064" size="20736" />
			<output>
				<port id="0" precision="FP32" names="model.8.cv1.conv.weight">
					<dim>72</dim>
					<dim>72</dim>
					<dim>1</dim>
					<dim>1</dim>
				</port>
			</output>
		</layer>
		<layer id="124" name="/model.8/cv1/conv/Conv/WithoutBiases" type="Convolution" version="opset1">
			<data strides="1, 1" dilations="1, 1" pads_begin="0, 0" pads_end="0, 0" auto_pad="explicit" />
			<input>
				<port id="0" precision="FP32">
					<dim>1</dim>
					<dim>72</dim>
					<dim>20</dim>
					<dim>20</dim>
				</port>
				<port id="1" precision="FP32">
					<dim>72</dim>
					<dim>72</dim>
					<dim>1</dim>
					<dim>1</dim>
				</port>
			</input>
			<output>
				<port id="2" precision="FP32">
					<dim>1</dim>
					<dim>72</dim>
					<dim>20</dim>
					<dim>20</dim>
				</port>
			</output>
		</layer>
		<layer id="125" name="Reshape_1197" type="Const" version="opset1">
			<data element_type="f32" shape="1, 72, 1, 1" offset="291800" size="288" />
			<output>
				<port id="0" precision="FP32">
					<dim>1</dim>
					<dim>72</dim>
					<dim>1</dim>
					<dim>1</dim>
				</port>
			</output>
		</layer>
		<layer id="126" name="/model.8/cv1/conv/Conv" type="Add" version="opset1">
			<data auto_broadcast="numpy" />
			<input>
				<port id="0" precision="FP32">
					<dim>1</dim>
					<dim>72</dim>
					<dim>20</dim>
					<dim>20</dim>
				</port>
				<port id="1" precision="FP32">
					<dim>1</dim>
					<dim>72</dim>
					<dim>1</dim>
					<dim>1</dim>
				</port>
			</input>
			<output>
				<port id="2" precision="FP32" names="/model.8/cv1/conv/Conv_output_0">
					<dim>1</dim>
					<dim>72</dim>
					<dim>20</dim>
					<dim>20</dim>
				</port>
			</output>
		</layer>
		<layer id="127" name="/model.8/cv1/act/Mul" type="Swish" version="opset4">
			<input>
				<port id="0" precision="FP32">
					<dim>1</dim>
					<dim>72</dim>
					<dim>20</dim>
					<dim>20</dim>
				</port>
			</input>
			<output>
				<port id="1" precision="FP32" names="/model.8/cv1/act/Mul_output_0">
					<dim>1</dim>
					<dim>72</dim>
					<dim>20</dim>
					<dim>20</dim>
				</port>
			</output>
		</layer>
		<layer id="128" name="Constant_1228" type="Const" version="opset1">
			<data element_type="i64" shape="" offset="6656" size="8" />
			<output>
				<port id="0" precision="I64" />
			</output>
		</layer>
		<layer id="129" name="Constant_80" type="Const" version="opset1">
			<data element_type="i64" shape="2" offset="292088" size="16" />
			<output>
				<port id="0" precision="I64" names="onnx::Split_197">
					<dim>2</dim>
				</port>
			</output>
		</layer>
		<layer id="130" name="/model.8/Split" type="VariadicSplit" version="opset1">
			<input>
				<port id="0" precision="FP32">
					<dim>1</dim>
					<dim>72</dim>
					<dim>20</dim>
					<dim>20</dim>
				</port>
				<port id="1" precision="I64" />
				<port id="2" precision="I64">
					<dim>2</dim>
				</port>
			</input>
			<output>
				<port id="3" precision="FP32" names="/model.8/Split_output_0">
					<dim>1</dim>
					<dim>36</dim>
					<dim>20</dim>
					<dim>20</dim>
				</port>
				<port id="4" precision="FP32" names="/model.8/Split_output_1">
					<dim>1</dim>
					<dim>36</dim>
					<dim>20</dim>
					<dim>20</dim>
				</port>
			</output>
		</layer>
		<layer id="131" name="model.8.m.0.cv1.conv.weight" type="Const" version="opset1">
			<data element_type="f32" shape="36, 36, 3, 3" offset="292104" size="46656" />
			<output>
				<port id="0" precision="FP32" names="model.8.m.0.cv1.conv.weight">
					<dim>36</dim>
					<dim>36</dim>
					<dim>3</dim>
					<dim>3</dim>
				</port>
			</output>
		</layer>
		<layer id="132" name="/model.8/m.0/cv1/conv/Conv/WithoutBiases" type="Convolution" version="opset1">
			<data strides="1, 1" dilations="1, 1" pads_begin="1, 1" pads_end="1, 1" auto_pad="explicit" />
			<input>
				<port id="0" precision="FP32">
					<dim>1</dim>
					<dim>36</dim>
					<dim>20</dim>
					<dim>20</dim>
				</port>
				<port id="1" precision="FP32">
					<dim>36</dim>
					<dim>36</dim>
					<dim>3</dim>
					<dim>3</dim>
				</port>
			</input>
			<output>
				<port id="2" precision="FP32">
					<dim>1</dim>
					<dim>36</dim>
					<dim>20</dim>
					<dim>20</dim>
				</port>
			</output>
		</layer>
		<layer id="133" name="Reshape_1250" type="Const" version="opset1">
			<data element_type="f32" shape="1, 36, 1, 1" offset="338760" size="144" />
			<output>
				<port id="0" precision="FP32">
					<dim>1</dim>
					<dim>36</dim>
					<dim>1</dim>
					<dim>1</dim>
				</port>
			</output>
		</layer>
		<layer id="134" name="/model.8/m.0/cv1/conv/Conv" type="Add" version="opset1">
			<data auto_broadcast="numpy" />
			<input>
				<port id="0" precision="FP32">
					<dim>1</dim>
					<dim>36</dim>
					<dim>20</dim>
					<dim>20</dim>
				</port>
				<port id="1" precision="FP32">
					<dim>1</dim>
					<dim>36</dim>
					<dim>1</dim>
					<dim>1</dim>
				</port>
			</input>
			<output>
				<port id="2" precision="FP32" names="/model.8/m.0/cv1/conv/Conv_output_0">
					<dim>1</dim>
					<dim>36</dim>
					<dim>20</dim>
					<dim>20</dim>
				</port>
			</output>
		</layer>
		<layer id="135" name="/model.8/m.0/cv1/act/Mul" type="Swish" version="opset4">
			<input>
				<port id="0" precision="FP32">
					<dim>1</dim>
					<dim>36</dim>
					<dim>20</dim>
					<dim>20</dim>
				</port>
			</input>
			<output>
				<port id="1" precision="FP32" names="/model.8/m.0/cv1/act/Mul_output_0">
					<dim>1</dim>
					<dim>36</dim>
					<dim>20</dim>
					<dim>20</dim>
				</port>
			</output>
		</layer>
		<layer id="136" name="model.8.m.0.cv2.conv.weight" type="Const" version="opset1">
			<data element_type="f32" shape="36, 36, 3, 3" offset="338904" size="46656" />
			<output>
				<port id="0" precision="FP32" names="model.8.m.0.cv2.conv.weight">
					<dim>36</dim>
					<dim>36</dim>
					<dim>3</dim>
					<dim>3</dim>
				</port>
			</output>
		</layer>
		<layer id="137" name="/model.8/m.0/cv2/conv/Conv/WithoutBiases" type="Convolution" version="opset1">
			<data strides="1, 1" dilations="1, 1" pads_begin="1, 1" pads_end="1, 1" auto_pad="explicit" />
			<input>
				<port id="0" precision="FP32">
					<dim>1</dim>
					<dim>36</dim>
					<dim>20</dim>
					<dim>20</dim>
				</port>
				<port id="1" precision="FP32">
					<dim>36</dim>
					<dim>36</dim>
					<dim>3</dim>
					<dim>3</dim>
				</port>
			</input>
			<output>
				<port id="2" precision="FP32">
					<dim>1</dim>
					<dim>36</dim>
					<dim>20</dim>
					<dim>20</dim>
				</port>
			</output>
		</layer>
		<layer id="138" name="Reshape_1300" type="Const" version="opset1">
			<data element_type="f32" shape="1, 36, 1, 1" offset="385560" size="144" />
			<output>
				<port id="0" precision="FP32">
					<dim>1</dim>
					<dim>36</dim>
					<dim>1</dim>
					<dim>1</dim>
				</port>
			</output>
		</layer>
		<layer id="139" name="/model.8/m.0/cv2/conv/Conv" type="Add" version="opset1">
			<data auto_broadcast="numpy" />
			<input>
				<port id="0" precision="FP32">
					<dim>1</dim>
					<dim>36</dim>
					<dim>20</dim>
					<dim>20</dim>
				</port>
				<port id="1" precision="FP32">
					<dim>1</dim>
					<dim>36</dim>
					<dim>1</dim>
					<dim>1</dim>
				</port>
			</input>
			<output>
				<port id="2" precision="FP32" names="/model.8/m.0/cv2/conv/Conv_output_0">
					<dim>1</dim>
					<dim>36</dim>
					<dim>20</dim>
					<dim>20</dim>
				</port>
			</output>
		</layer>
		<layer id="140" name="/model.8/m.0/cv2/act/Mul" type="Swish" version="opset4">
			<input>
				<port id="0" precision="FP32">
					<dim>1</dim>
					<dim>36</dim>
					<dim>20</dim>
					<dim>20</dim>
				</port>
			</input>
			<output>
				<port id="1" precision="FP32" names="/model.8/m.0/cv2/act/Mul_output_0">
					<dim>1</dim>
					<dim>36</dim>
					<dim>20</dim>
					<dim>20</dim>
				</port>
			</output>
		</layer>
		<layer id="141" name="/model.8/m.0/Add" type="Add" version="opset1">
			<data auto_broadcast="numpy" />
			<input>
				<port id="0" precision="FP32">
					<dim>1</dim>
					<dim>36</dim>
					<dim>20</dim>
					<dim>20</dim>
				</port>
				<port id="1" precision="FP32">
					<dim>1</dim>
					<dim>36</dim>
					<dim>20</dim>
					<dim>20</dim>
				</port>
			</input>
			<output>
				<port id="2" precision="FP32" names="/model.8/m.0/Add_output_0">
					<dim>1</dim>
					<dim>36</dim>
					<dim>20</dim>
					<dim>20</dim>
				</port>
			</output>
		</layer>
		<layer id="142" name="/model.8/Concat" type="Concat" version="opset1">
			<data axis="1" />
			<input>
				<port id="0" precision="FP32">
					<dim>1</dim>
					<dim>36</dim>
					<dim>20</dim>
					<dim>20</dim>
				</port>
				<port id="1" precision="FP32">
					<dim>1</dim>
					<dim>36</dim>
					<dim>20</dim>
					<dim>20</dim>
				</port>
				<port id="2" precision="FP32">
					<dim>1</dim>
					<dim>36</dim>
					<dim>20</dim>
					<dim>20</dim>
				</port>
			</input>
			<output>
				<port id="3" precision="FP32" names="/model.8/Concat_output_0">
					<dim>1</dim>
					<dim>108</dim>
					<dim>20</dim>
					<dim>20</dim>
				</port>
			</output>
		</layer>
		<layer id="143" name="model.8.cv2.conv.weight" type="Const" version="opset1">
			<data element_type="f32" shape="72, 108, 1, 1" offset="385704" size="31104" />
			<output>
				<port id="0" precision="FP32" names="model.8.cv2.conv.weight">
					<dim>72</dim>
					<dim>108</dim>
					<dim>1</dim>
					<dim>1</dim>
				</port>
			</output>
		</layer>
		<layer id="144" name="/model.8/cv2/conv/Conv/WithoutBiases" type="Convolution" version="opset1">
			<data strides="1, 1" dilations="1, 1" pads_begin="0, 0" pads_end="0, 0" auto_pad="explicit" />
			<input>
				<port id="0" precision="FP32">
					<dim>1</dim>
					<dim>108</dim>
					<dim>20</dim>
					<dim>20</dim>
				</port>
				<port id="1" precision="FP32">
					<dim>72</dim>
					<dim>108</dim>
					<dim>1</dim>
					<dim>1</dim>
				</port>
			</input>
			<output>
				<port id="2" precision="FP32">
					<dim>1</dim>
					<dim>72</dim>
					<dim>20</dim>
					<dim>20</dim>
				</port>
			</output>
		</layer>
		<layer id="145" name="Reshape_1352" type="Const" version="opset1">
			<data element_type="f32" shape="1, 72, 1, 1" offset="416808" size="288" />
			<output>
				<port id="0" precision="FP32">
					<dim>1</dim>
					<dim>72</dim>
					<dim>1</dim>
					<dim>1</dim>
				</port>
			</output>
		</layer>
		<layer id="146" name="/model.8/cv2/conv/Conv" type="Add" version="opset1">
			<data auto_broadcast="numpy" />
			<input>
				<port id="0" precision="FP32">
					<dim>1</dim>
					<dim>72</dim>
					<dim>20</dim>
					<dim>20</dim>
				</port>
				<port id="1" precision="FP32">
					<dim>1</dim>
					<dim>72</dim>
					<dim>1</dim>
					<dim>1</dim>
				</port>
			</input>
			<output>
				<port id="2" precision="FP32" names="/model.8/cv2/conv/Conv_output_0">
					<dim>1</dim>
					<dim>72</dim>
					<dim>20</dim>
					<dim>20</dim>
				</port>
			</output>
		</layer>
		<layer id="147" name="/model.8/cv2/act/Mul" type="Swish" version="opset4">
			<input>
				<port id="0" precision="FP32">
					<dim>1</dim>
					<dim>72</dim>
					<dim>20</dim>
					<dim>20</dim>
				</port>
			</input>
			<output>
				<port id="1" precision="FP32" names="/model.8/cv2/act/Mul_output_0">
					<dim>1</dim>
					<dim>72</dim>
					<dim>20</dim>
					<dim>20</dim>
				</port>
			</output>
		</layer>
		<layer id="148" name="model.9.cv1.conv.weight" type="Const" version="opset1">
			<data element_type="f32" shape="36, 72, 1, 1" offset="417096" size="10368" />
			<output>
				<port id="0" precision="FP32" names="model.9.cv1.conv.weight">
					<dim>36</dim>
					<dim>72</dim>
					<dim>1</dim>
					<dim>1</dim>
				</port>
			</output>
		</layer>
		<layer id="149" name="/model.9/cv1/conv/Conv/WithoutBiases" type="Convolution" version="opset1">
			<data strides="1, 1" dilations="1, 1" pads_begin="0, 0" pads_end="0, 0" auto_pad="explicit" />
			<input>
				<port id="0" precision="FP32">
					<dim>1</dim>
					<dim>72</dim>
					<dim>20</dim>
					<dim>20</dim>
				</port>
				<port id="1" precision="FP32">
					<dim>36</dim>
					<dim>72</dim>
					<dim>1</dim>
					<dim>1</dim>
				</port>
			</input>
			<output>
				<port id="2" precision="FP32">
					<dim>1</dim>
					<dim>36</dim>
					<dim>20</dim>
					<dim>20</dim>
				</port>
			</output>
		</layer>
		<layer id="150" name="Reshape_1402" type="Const" version="opset1">
			<data element_type="f32" shape="1, 36, 1, 1" offset="427464" size="144" />
			<output>
				<port id="0" precision="FP32">
					<dim>1</dim>
					<dim>36</dim>
					<dim>1</dim>
					<dim>1</dim>
				</port>
			</output>
		</layer>
		<layer id="151" name="/model.9/cv1/conv/Conv" type="Add" version="opset1">
			<data auto_broadcast="numpy" />
			<input>
				<port id="0" precision="FP32">
					<dim>1</dim>
					<dim>36</dim>
					<dim>20</dim>
					<dim>20</dim>
				</port>
				<port id="1" precision="FP32">
					<dim>1</dim>
					<dim>36</dim>
					<dim>1</dim>
					<dim>1</dim>
				</port>
			</input>
			<output>
				<port id="2" precision="FP32" names="/model.9/cv1/conv/Conv_output_0">
					<dim>1</dim>
					<dim>36</dim>
					<dim>20</dim>
					<dim>20</dim>
				</port>
			</output>
		</layer>
		<layer id="152" name="/model.9/cv1/act/Mul" type="Swish" version="opset4">
			<input>
				<port id="0" precision="FP32">
					<dim>1</dim>
					<dim>36</dim>
					<dim>20</dim>
					<dim>20</dim>
				</port>
			</input>
			<output>
				<port id="1" precision="FP32" names="/model.9/cv1/act/Mul_output_0">
					<dim>1</dim>
					<dim>36</dim>
					<dim>20</dim>
					<dim>20</dim>
				</port>
			</output>
		</layer>
		<layer id="153" name="/model.9/m/MaxPool" type="MaxPool" version="opset8">
			<data strides="1, 1" dilations="1, 1" pads_begin="2, 2" pads_end="2, 2" kernel="5, 5" rounding_type="floor" auto_pad="explicit" index_element_type="i64" axis="0" />
			<input>
				<port id="0" precision="FP32">
					<dim>1</dim>
					<dim>36</dim>
					<dim>20</dim>
					<dim>20</dim>
				</port>
			</input>
			<output>
				<port id="1" precision="FP32" names="/model.9/m/MaxPool_output_0">
					<dim>1</dim>
					<dim>36</dim>
					<dim>20</dim>
					<dim>20</dim>
				</port>
				<port id="2" precision="I64">
					<dim>1</dim>
					<dim>36</dim>
					<dim>20</dim>
					<dim>20</dim>
				</port>
			</output>
		</layer>
		<layer id="154" name="/model.9/m_1/MaxPool" type="MaxPool" version="opset8">
			<data strides="1, 1" dilations="1, 1" pads_begin="2, 2" pads_end="2, 2" kernel="5, 5" rounding_type="floor" auto_pad="explicit" index_element_type="i64" axis="0" />
			<input>
				<port id="0" precision="FP32">
					<dim>1</dim>
					<dim>36</dim>
					<dim>20</dim>
					<dim>20</dim>
				</port>
			</input>
			<output>
				<port id="1" precision="FP32" names="/model.9/m_1/MaxPool_output_0">
					<dim>1</dim>
					<dim>36</dim>
					<dim>20</dim>
					<dim>20</dim>
				</port>
				<port id="2" precision="I64">
					<dim>1</dim>
					<dim>36</dim>
					<dim>20</dim>
					<dim>20</dim>
				</port>
			</output>
		</layer>
		<layer id="155" name="/model.9/m_2/MaxPool" type="MaxPool" version="opset8">
			<data strides="1, 1" dilations="1, 1" pads_begin="2, 2" pads_end="2, 2" kernel="5, 5" rounding_type="floor" auto_pad="explicit" index_element_type="i64" axis="0" />
			<input>
				<port id="0" precision="FP32">
					<dim>1</dim>
					<dim>36</dim>
					<dim>20</dim>
					<dim>20</dim>
				</port>
			</input>
			<output>
				<port id="1" precision="FP32" names="/model.9/m_2/MaxPool_output_0">
					<dim>1</dim>
					<dim>36</dim>
					<dim>20</dim>
					<dim>20</dim>
				</port>
				<port id="2" precision="I64">
					<dim>1</dim>
					<dim>36</dim>
					<dim>20</dim>
					<dim>20</dim>
				</port>
			</output>
		</layer>
		<layer id="156" name="/model.9/Concat" type="Concat" version="opset1">
			<data axis="1" />
			<input>
				<port id="0" precision="FP32">
					<dim>1</dim>
					<dim>36</dim>
					<dim>20</dim>
					<dim>20</dim>
				</port>
				<port id="1" precision="FP32">
					<dim>1</dim>
					<dim>36</dim>
					<dim>20</dim>
					<dim>20</dim>
				</port>
				<port id="2" precision="FP32">
					<dim>1</dim>
					<dim>36</dim>
					<dim>20</dim>
					<dim>20</dim>
				</port>
				<port id="3" precision="FP32">
					<dim>1</dim>
					<dim>36</dim>
					<dim>20</dim>
					<dim>20</dim>
				</port>
			</input>
			<output>
				<port id="4" precision="FP32" names="/model.9/Concat_output_0">
					<dim>1</dim>
					<dim>144</dim>
					<dim>20</dim>
					<dim>20</dim>
				</port>
			</output>
		</layer>
		<layer id="157" name="model.9.cv2.conv.weight" type="Const" version="opset1">
			<data element_type="f32" shape="72, 144, 1, 1" offset="427608" size="41472" />
			<output>
				<port id="0" precision="FP32" names="model.9.cv2.conv.weight">
					<dim>72</dim>
					<dim>144</dim>
					<dim>1</dim>
					<dim>1</dim>
				</port>
			</output>
		</layer>
		<layer id="158" name="/model.9/cv2/conv/Conv/WithoutBiases" type="Convolution" version="opset1">
			<data strides="1, 1" dilations="1, 1" pads_begin="0, 0" pads_end="0, 0" auto_pad="explicit" />
			<input>
				<port id="0" precision="FP32">
					<dim>1</dim>
					<dim>144</dim>
					<dim>20</dim>
					<dim>20</dim>
				</port>
				<port id="1" precision="FP32">
					<dim>72</dim>
					<dim>144</dim>
					<dim>1</dim>
					<dim>1</dim>
				</port>
			</input>
			<output>
				<port id="2" precision="FP32">
					<dim>1</dim>
					<dim>72</dim>
					<dim>20</dim>
					<dim>20</dim>
				</port>
			</output>
		</layer>
		<layer id="159" name="Reshape_1456" type="Const" version="opset1">
			<data element_type="f32" shape="1, 72, 1, 1" offset="469080" size="288" />
			<output>
				<port id="0" precision="FP32">
					<dim>1</dim>
					<dim>72</dim>
					<dim>1</dim>
					<dim>1</dim>
				</port>
			</output>
		</layer>
		<layer id="160" name="/model.9/cv2/conv/Conv" type="Add" version="opset1">
			<data auto_broadcast="numpy" />
			<input>
				<port id="0" precision="FP32">
					<dim>1</dim>
					<dim>72</dim>
					<dim>20</dim>
					<dim>20</dim>
				</port>
				<port id="1" precision="FP32">
					<dim>1</dim>
					<dim>72</dim>
					<dim>1</dim>
					<dim>1</dim>
				</port>
			</input>
			<output>
				<port id="2" precision="FP32" names="/model.9/cv2/conv/Conv_output_0">
					<dim>1</dim>
					<dim>72</dim>
					<dim>20</dim>
					<dim>20</dim>
				</port>
			</output>
		</layer>
		<layer id="161" name="/model.9/cv2/act/Mul" type="Swish" version="opset4">
			<input>
				<port id="0" precision="FP32">
					<dim>1</dim>
					<dim>72</dim>
					<dim>20</dim>
					<dim>20</dim>
				</port>
			</input>
			<output>
				<port id="1" precision="FP32" names="/model.9/cv2/act/Mul_output_0">
					<dim>1</dim>
					<dim>72</dim>
					<dim>20</dim>
					<dim>20</dim>
				</port>
			</output>
		</layer>
		<layer id="162" name="ShapeOf_1488" type="ShapeOf" version="opset3">
			<data output_type="i64" />
			<input>
				<port id="0" precision="FP32">
					<dim>1</dim>
					<dim>72</dim>
					<dim>20</dim>
					<dim>20</dim>
				</port>
			</input>
			<output>
				<port id="1" precision="I64">
					<dim>4</dim>
				</port>
			</output>
		</layer>
		<layer id="163" name="Convert_1489" type="Convert" version="opset1">
			<data destination_type="f32" />
			<input>
				<port id="0" precision="I64">
					<dim>4</dim>
				</port>
			</input>
			<output>
				<port id="1" precision="FP32">
					<dim>4</dim>
				</port>
			</output>
		</layer>
		<layer id="164" name="/model.10/Constant" type="Const" version="opset1">
			<data element_type="f32" shape="4" offset="469368" size="16" />
			<output>
				<port id="0" precision="FP32" names="/model.10/Constant_output_0">
					<dim>4</dim>
				</port>
			</output>
		</layer>
		<layer id="165" name="Multiply_1490" type="Multiply" version="opset1">
			<data auto_broadcast="numpy" />
			<input>
				<port id="0" precision="FP32">
					<dim>4</dim>
				</port>
				<port id="1" precision="FP32">
					<dim>4</dim>
				</port>
			</input>
			<output>
				<port id="2" precision="FP32">
					<dim>4</dim>
				</port>
			</output>
		</layer>
		<layer id="166" name="Convert_1491" type="Convert" version="opset1">
			<data destination_type="i64" />
			<input>
				<port id="0" precision="FP32">
					<dim>4</dim>
				</port>
			</input>
			<output>
				<port id="1" precision="I64">
					<dim>4</dim>
				</port>
			</output>
		</layer>
		<layer id="167" name="/model.10/Resize" type="Interpolate" version="opset4">
			<data mode="nearest" shape_calculation_mode="scales" coordinate_transformation_mode="asymmetric" nearest_mode="floor" antialias="false" pads_begin="0, 0, 0, 0" pads_end="0, 0, 0, 0" cube_coeff="-0.75" />
			<input>
				<port id="0" precision="FP32">
					<dim>1</dim>
					<dim>72</dim>
					<dim>20</dim>
					<dim>20</dim>
				</port>
				<port id="1" precision="I64">
					<dim>4</dim>
				</port>
				<port id="2" precision="FP32">
					<dim>4</dim>
				</port>
			</input>
			<output>
				<port id="3" precision="FP32" names="/model.10/Resize_output_0">
					<dim>1</dim>
					<dim>72</dim>
					<dim>40</dim>
					<dim>40</dim>
				</port>
			</output>
		</layer>
		<layer id="168" name="/model.11/Concat" type="Concat" version="opset1">
			<data axis="1" />
			<input>
				<port id="0" precision="FP32">
					<dim>1</dim>
					<dim>72</dim>
					<dim>40</dim>
					<dim>40</dim>
				</port>
				<port id="1" precision="FP32">
					<dim>1</dim>
					<dim>40</dim>
					<dim>40</dim>
					<dim>40</dim>
				</port>
			</input>
			<output>
				<port id="2" precision="FP32" names="/model.11/Concat_output_0">
					<dim>1</dim>
					<dim>112</dim>
					<dim>40</dim>
					<dim>40</dim>
				</port>
			</output>
		</layer>
		<layer id="169" name="model.12.cv1.conv.weight" type="Const" version="opset1">
			<data element_type="f32" shape="40, 112, 1, 1" offset="469384" size="17920" />
			<output>
				<port id="0" precision="FP32" names="model.12.cv1.conv.weight">
					<dim>40</dim>
					<dim>112</dim>
					<dim>1</dim>
					<dim>1</dim>
				</port>
			</output>
		</layer>
		<layer id="170" name="/model.12/cv1/conv/Conv/WithoutBiases" type="Convolution" version="opset1">
			<data strides="1, 1" dilations="1, 1" pads_begin="0, 0" pads_end="0, 0" auto_pad="explicit" />
			<input>
				<port id="0" precision="FP32">
					<dim>1</dim>
					<dim>112</dim>
					<dim>40</dim>
					<dim>40</dim>
				</port>
				<port id="1" precision="FP32">
					<dim>40</dim>
					<dim>112</dim>
					<dim>1</dim>
					<dim>1</dim>
				</port>
			</input>
			<output>
				<port id="2" precision="FP32">
					<dim>1</dim>
					<dim>40</dim>
					<dim>40</dim>
					<dim>40</dim>
				</port>
			</output>
		</layer>
		<layer id="171" name="Reshape_1514" type="Const" version="opset1">
			<data element_type="f32" shape="1, 40, 1, 1" offset="487304" size="160" />
			<output>
				<port id="0" precision="FP32">
					<dim>1</dim>
					<dim>40</dim>
					<dim>1</dim>
					<dim>1</dim>
				</port>
			</output>
		</layer>
		<layer id="172" name="/model.12/cv1/conv/Conv" type="Add" version="opset1">
			<data auto_broadcast="numpy" />
			<input>
				<port id="0" precision="FP32">
					<dim>1</dim>
					<dim>40</dim>
					<dim>40</dim>
					<dim>40</dim>
				</port>
				<port id="1" precision="FP32">
					<dim>1</dim>
					<dim>40</dim>
					<dim>1</dim>
					<dim>1</dim>
				</port>
			</input>
			<output>
				<port id="2" precision="FP32" names="/model.12/cv1/conv/Conv_output_0">
					<dim>1</dim>
					<dim>40</dim>
					<dim>40</dim>
					<dim>40</dim>
				</port>
			</output>
		</layer>
		<layer id="173" name="/model.12/cv1/act/Mul" type="Swish" version="opset4">
			<input>
				<port id="0" precision="FP32">
					<dim>1</dim>
					<dim>40</dim>
					<dim>40</dim>
					<dim>40</dim>
				</port>
			</input>
			<output>
				<port id="1" precision="FP32" names="/model.12/cv1/act/Mul_output_0">
					<dim>1</dim>
					<dim>40</dim>
					<dim>40</dim>
					<dim>40</dim>
				</port>
			</output>
		</layer>
		<layer id="174" name="Constant_1544" type="Const" version="opset1">
			<data element_type="i64" shape="" offset="6656" size="8" />
			<output>
				<port id="0" precision="I64" />
			</output>
		</layer>
		<layer id="175" name="/model.12/Split" type="VariadicSplit" version="opset1">
			<input>
				<port id="0" precision="FP32">
					<dim>1</dim>
					<dim>40</dim>
					<dim>40</dim>
					<dim>40</dim>
				</port>
				<port id="1" precision="I64" />
				<port id="2" precision="I64">
					<dim>2</dim>
				</port>
			</input>
			<output>
				<port id="3" precision="FP32" names="/model.12/Split_output_0">
					<dim>1</dim>
					<dim>20</dim>
					<dim>40</dim>
					<dim>40</dim>
				</port>
				<port id="4" precision="FP32" names="/model.12/Split_output_1">
					<dim>1</dim>
					<dim>20</dim>
					<dim>40</dim>
					<dim>40</dim>
				</port>
			</output>
		</layer>
		<layer id="176" name="model.12.m.0.cv1.conv.weight" type="Const" version="opset1">
			<data element_type="f32" shape="20, 20, 3, 3" offset="487464" size="14400" />
			<output>
				<port id="0" precision="FP32" names="model.12.m.0.cv1.conv.weight">
					<dim>20</dim>
					<dim>20</dim>
					<dim>3</dim>
					<dim>3</dim>
				</port>
			</output>
		</layer>
		<layer id="177" name="/model.12/m.0/cv1/conv/Conv/WithoutBiases" type="Convolution" version="opset1">
			<data strides="1, 1" dilations="1, 1" pads_begin="1, 1" pads_end="1, 1" auto_pad="explicit" />
			<input>
				<port id="0" precision="FP32">
					<dim>1</dim>
					<dim>20</dim>
					<dim>40</dim>
					<dim>40</dim>
				</port>
				<port id="1" precision="FP32">
					<dim>20</dim>
					<dim>20</dim>
					<dim>3</dim>
					<dim>3</dim>
				</port>
			</input>
			<output>
				<port id="2" precision="FP32">
					<dim>1</dim>
					<dim>20</dim>
					<dim>40</dim>
					<dim>40</dim>
				</port>
			</output>
		</layer>
		<layer id="178" name="Reshape_1566" type="Const" version="opset1">
			<data element_type="f32" shape="1, 20, 1, 1" offset="501864" size="80" />
			<output>
				<port id="0" precision="FP32">
					<dim>1</dim>
					<dim>20</dim>
					<dim>1</dim>
					<dim>1</dim>
				</port>
			</output>
		</layer>
		<layer id="179" name="/model.12/m.0/cv1/conv/Conv" type="Add" version="opset1">
			<data auto_broadcast="numpy" />
			<input>
				<port id="0" precision="FP32">
					<dim>1</dim>
					<dim>20</dim>
					<dim>40</dim>
					<dim>40</dim>
				</port>
				<port id="1" precision="FP32">
					<dim>1</dim>
					<dim>20</dim>
					<dim>1</dim>
					<dim>1</dim>
				</port>
			</input>
			<output>
				<port id="2" precision="FP32" names="/model.12/m.0/cv1/conv/Conv_output_0">
					<dim>1</dim>
					<dim>20</dim>
					<dim>40</dim>
					<dim>40</dim>
				</port>
			</output>
		</layer>
		<layer id="180" name="/model.12/m.0/cv1/act/Mul" type="Swish" version="opset4">
			<input>
				<port id="0" precision="FP32">
					<dim>1</dim>
					<dim>20</dim>
					<dim>40</dim>
					<dim>40</dim>
				</port>
			</input>
			<output>
				<port id="1" precision="FP32" names="/model.12/m.0/cv1/act/Mul_output_0">
					<dim>1</dim>
					<dim>20</dim>
					<dim>40</dim>
					<dim>40</dim>
				</port>
			</output>
		</layer>
		<layer id="181" name="model.12.m.0.cv2.conv.weight" type="Const" version="opset1">
			<data element_type="f32" shape="20, 20, 3, 3" offset="501944" size="14400" />
			<output>
				<port id="0" precision="FP32" names="model.12.m.0.cv2.conv.weight">
					<dim>20</dim>
					<dim>20</dim>
					<dim>3</dim>
					<dim>3</dim>
				</port>
			</output>
		</layer>
		<layer id="182" name="/model.12/m.0/cv2/conv/Conv/WithoutBiases" type="Convolution" version="opset1">
			<data strides="1, 1" dilations="1, 1" pads_begin="1, 1" pads_end="1, 1" auto_pad="explicit" />
			<input>
				<port id="0" precision="FP32">
					<dim>1</dim>
					<dim>20</dim>
					<dim>40</dim>
					<dim>40</dim>
				</port>
				<port id="1" precision="FP32">
					<dim>20</dim>
					<dim>20</dim>
					<dim>3</dim>
					<dim>3</dim>
				</port>
			</input>
			<output>
				<port id="2" precision="FP32">
					<dim>1</dim>
					<dim>20</dim>
					<dim>40</dim>
					<dim>40</dim>
				</port>
			</output>
		</layer>
		<layer id="183" name="Reshape_1616" type="Const" version="opset1">
			<data element_type="f32" shape="1, 20, 1, 1" offset="516344" size="80" />
			<output>
				<port id="0" precision="FP32">
					<dim>1</dim>
					<dim>20</dim>
					<dim>1</dim>
					<dim>1</dim>
				</port>
			</output>
		</layer>
		<layer id="184" name="/model.12/m.0/cv2/conv/Conv" type="Add" version="opset1">
			<data auto_broadcast="numpy" />
			<input>
				<port id="0" precision="FP32">
					<dim>1</dim>
					<dim>20</dim>
					<dim>40</dim>
					<dim>40</dim>
				</port>
				<port id="1" precision="FP32">
					<dim>1</dim>
					<dim>20</dim>
					<dim>1</dim>
					<dim>1</dim>
				</port>
			</input>
			<output>
				<port id="2" precision="FP32" names="/model.12/m.0/cv2/conv/Conv_output_0">
					<dim>1</dim>
					<dim>20</dim>
					<dim>40</dim>
					<dim>40</dim>
				</port>
			</output>
		</layer>
		<layer id="185" name="/model.12/m.0/cv2/act/Mul" type="Swish" version="opset4">
			<input>
				<port id="0" precision="FP32">
					<dim>1</dim>
					<dim>20</dim>
					<dim>40</dim>
					<dim>40</dim>
				</port>
			</input>
			<output>
				<port id="1" precision="FP32" names="/model.12/m.0/cv2/act/Mul_output_0">
					<dim>1</dim>
					<dim>20</dim>
					<dim>40</dim>
					<dim>40</dim>
				</port>
			</output>
		</layer>
		<layer id="186" name="/model.12/Concat" type="Concat" version="opset1">
			<data axis="1" />
			<input>
				<port id="0" precision="FP32">
					<dim>1</dim>
					<dim>20</dim>
					<dim>40</dim>
					<dim>40</dim>
				</port>
				<port id="1" precision="FP32">
					<dim>1</dim>
					<dim>20</dim>
					<dim>40</dim>
					<dim>40</dim>
				</port>
				<port id="2" precision="FP32">
					<dim>1</dim>
					<dim>20</dim>
					<dim>40</dim>
					<dim>40</dim>
				</port>
			</input>
			<output>
				<port id="3" precision="FP32" names="/model.12/Concat_output_0">
					<dim>1</dim>
					<dim>60</dim>
					<dim>40</dim>
					<dim>40</dim>
				</port>
			</output>
		</layer>
		<layer id="187" name="model.12.cv2.conv.weight" type="Const" version="opset1">
			<data element_type="f32" shape="40, 60, 1, 1" offset="516424" size="9600" />
			<output>
				<port id="0" precision="FP32" names="model.12.cv2.conv.weight">
					<dim>40</dim>
					<dim>60</dim>
					<dim>1</dim>
					<dim>1</dim>
				</port>
			</output>
		</layer>
		<layer id="188" name="/model.12/cv2/conv/Conv/WithoutBiases" type="Convolution" version="opset1">
			<data strides="1, 1" dilations="1, 1" pads_begin="0, 0" pads_end="0, 0" auto_pad="explicit" />
			<input>
				<port id="0" precision="FP32">
					<dim>1</dim>
					<dim>60</dim>
					<dim>40</dim>
					<dim>40</dim>
				</port>
				<port id="1" precision="FP32">
					<dim>40</dim>
					<dim>60</dim>
					<dim>1</dim>
					<dim>1</dim>
				</port>
			</input>
			<output>
				<port id="2" precision="FP32">
					<dim>1</dim>
					<dim>40</dim>
					<dim>40</dim>
					<dim>40</dim>
				</port>
			</output>
		</layer>
		<layer id="189" name="Reshape_1667" type="Const" version="opset1">
			<data element_type="f32" shape="1, 40, 1, 1" offset="526024" size="160" />
			<output>
				<port id="0" precision="FP32">
					<dim>1</dim>
					<dim>40</dim>
					<dim>1</dim>
					<dim>1</dim>
				</port>
			</output>
		</layer>
		<layer id="190" name="/model.12/cv2/conv/Conv" type="Add" version="opset1">
			<data auto_broadcast="numpy" />
			<input>
				<port id="0" precision="FP32">
					<dim>1</dim>
					<dim>40</dim>
					<dim>40</dim>
					<dim>40</dim>
				</port>
				<port id="1" precision="FP32">
					<dim>1</dim>
					<dim>40</dim>
					<dim>1</dim>
					<dim>1</dim>
				</port>
			</input>
			<output>
				<port id="2" precision="FP32" names="/model.12/cv2/conv/Conv_output_0">
					<dim>1</dim>
					<dim>40</dim>
					<dim>40</dim>
					<dim>40</dim>
				</port>
			</output>
		</layer>
		<layer id="191" name="/model.12/cv2/act/Mul" type="Swish" version="opset4">
			<input>
				<port id="0" precision="FP32">
					<dim>1</dim>
					<dim>40</dim>
					<dim>40</dim>
					<dim>40</dim>
				</port>
			</input>
			<output>
				<port id="1" precision="FP32" names="/model.12/cv2/act/Mul_output_0">
					<dim>1</dim>
					<dim>40</dim>
					<dim>40</dim>
					<dim>40</dim>
				</port>
			</output>
		</layer>
		<layer id="192" name="ShapeOf_1699" type="ShapeOf" version="opset3">
			<data output_type="i64" />
			<input>
				<port id="0" precision="FP32">
					<dim>1</dim>
					<dim>40</dim>
					<dim>40</dim>
					<dim>40</dim>
				</port>
			</input>
			<output>
				<port id="1" precision="I64">
					<dim>4</dim>
				</port>
			</output>
		</layer>
		<layer id="193" name="Convert_1700" type="Convert" version="opset1">
			<data destination_type="f32" />
			<input>
				<port id="0" precision="I64">
					<dim>4</dim>
				</port>
			</input>
			<output>
				<port id="1" precision="FP32">
					<dim>4</dim>
				</port>
			</output>
		</layer>
		<layer id="194" name="/model.13/Constant" type="Const" version="opset1">
			<data element_type="f32" shape="4" offset="469368" size="16" />
			<output>
				<port id="0" precision="FP32" names="/model.13/Constant_output_0">
					<dim>4</dim>
				</port>
			</output>
		</layer>
		<layer id="195" name="Multiply_1701" type="Multiply" version="opset1">
			<data auto_broadcast="numpy" />
			<input>
				<port id="0" precision="FP32">
					<dim>4</dim>
				</port>
				<port id="1" precision="FP32">
					<dim>4</dim>
				</port>
			</input>
			<output>
				<port id="2" precision="FP32">
					<dim>4</dim>
				</port>
			</output>
		</layer>
		<layer id="196" name="Convert_1702" type="Convert" version="opset1">
			<data destination_type="i64" />
			<input>
				<port id="0" precision="FP32">
					<dim>4</dim>
				</port>
			</input>
			<output>
				<port id="1" precision="I64">
					<dim>4</dim>
				</port>
			</output>
		</layer>
		<layer id="197" name="/model.13/Resize" type="Interpolate" version="opset4">
			<data mode="nearest" shape_calculation_mode="scales" coordinate_transformation_mode="asymmetric" nearest_mode="floor" antialias="false" pads_begin="0, 0, 0, 0" pads_end="0, 0, 0, 0" cube_coeff="-0.75" />
			<input>
				<port id="0" precision="FP32">
					<dim>1</dim>
					<dim>40</dim>
					<dim>40</dim>
					<dim>40</dim>
				</port>
				<port id="1" precision="I64">
					<dim>4</dim>
				</port>
				<port id="2" precision="FP32">
					<dim>4</dim>
				</port>
			</input>
			<output>
				<port id="3" precision="FP32" names="/model.13/Resize_output_0">
					<dim>1</dim>
					<dim>40</dim>
					<dim>80</dim>
					<dim>80</dim>
				</port>
			</output>
		</layer>
		<layer id="198" name="/model.14/Concat" type="Concat" version="opset1">
			<data axis="1" />
			<input>
				<port id="0" precision="FP32">
					<dim>1</dim>
					<dim>40</dim>
					<dim>80</dim>
					<dim>80</dim>
				</port>
				<port id="1" precision="FP32">
					<dim>1</dim>
					<dim>24</dim>
					<dim>80</dim>
					<dim>80</dim>
				</port>
			</input>
			<output>
				<port id="2" precision="FP32" names="/model.14/Concat_output_0">
					<dim>1</dim>
					<dim>64</dim>
					<dim>80</dim>
					<dim>80</dim>
				</port>
			</output>
		</layer>
		<layer id="199" name="model.15.cv1.conv.weight" type="Const" version="opset1">
			<data element_type="f32" shape="24, 64, 1, 1" offset="526184" size="6144" />
			<output>
				<port id="0" precision="FP32" names="model.15.cv1.conv.weight">
					<dim>24</dim>
					<dim>64</dim>
					<dim>1</dim>
					<dim>1</dim>
				</port>
			</output>
		</layer>
		<layer id="200" name="/model.15/cv1/conv/Conv/WithoutBiases" type="Convolution" version="opset1">
			<data strides="1, 1" dilations="1, 1" pads_begin="0, 0" pads_end="0, 0" auto_pad="explicit" />
			<input>
				<port id="0" precision="FP32">
					<dim>1</dim>
					<dim>64</dim>
					<dim>80</dim>
					<dim>80</dim>
				</port>
				<port id="1" precision="FP32">
					<dim>24</dim>
					<dim>64</dim>
					<dim>1</dim>
					<dim>1</dim>
				</port>
			</input>
			<output>
				<port id="2" precision="FP32">
					<dim>1</dim>
					<dim>24</dim>
					<dim>80</dim>
					<dim>80</dim>
				</port>
			</output>
		</layer>
		<layer id="201" name="Reshape_1725" type="Const" version="opset1">
			<data element_type="f32" shape="1, 24, 1, 1" offset="532328" size="96" />
			<output>
				<port id="0" precision="FP32">
					<dim>1</dim>
					<dim>24</dim>
					<dim>1</dim>
					<dim>1</dim>
				</port>
			</output>
		</layer>
		<layer id="202" name="/model.15/cv1/conv/Conv" type="Add" version="opset1">
			<data auto_broadcast="numpy" />
			<input>
				<port id="0" precision="FP32">
					<dim>1</dim>
					<dim>24</dim>
					<dim>80</dim>
					<dim>80</dim>
				</port>
				<port id="1" precision="FP32">
					<dim>1</dim>
					<dim>24</dim>
					<dim>1</dim>
					<dim>1</dim>
				</port>
			</input>
			<output>
				<port id="2" precision="FP32" names="/model.15/cv1/conv/Conv_output_0">
					<dim>1</dim>
					<dim>24</dim>
					<dim>80</dim>
					<dim>80</dim>
				</port>
			</output>
		</layer>
		<layer id="203" name="/model.15/cv1/act/Mul" type="Swish" version="opset4">
			<input>
				<port id="0" precision="FP32">
					<dim>1</dim>
					<dim>24</dim>
					<dim>80</dim>
					<dim>80</dim>
				</port>
			</input>
			<output>
				<port id="1" precision="FP32" names="/model.15/cv1/act/Mul_output_0">
					<dim>1</dim>
					<dim>24</dim>
					<dim>80</dim>
					<dim>80</dim>
				</port>
			</output>
		</layer>
		<layer id="204" name="Constant_1755" type="Const" version="opset1">
			<data element_type="i64" shape="" offset="6656" size="8" />
			<output>
				<port id="0" precision="I64" />
			</output>
		</layer>
		<layer id="205" name="/model.15/Split" type="VariadicSplit" version="opset1">
			<input>
				<port id="0" precision="FP32">
					<dim>1</dim>
					<dim>24</dim>
					<dim>80</dim>
					<dim>80</dim>
				</port>
				<port id="1" precision="I64" />
				<port id="2" precision="I64">
					<dim>2</dim>
				</port>
			</input>
			<output>
				<port id="3" precision="FP32" names="/model.15/Split_output_0">
					<dim>1</dim>
					<dim>12</dim>
					<dim>80</dim>
					<dim>80</dim>
				</port>
				<port id="4" precision="FP32" names="/model.15/Split_output_1">
					<dim>1</dim>
					<dim>12</dim>
					<dim>80</dim>
					<dim>80</dim>
				</port>
			</output>
		</layer>
		<layer id="206" name="model.15.m.0.cv1.conv.weight" type="Const" version="opset1">
			<data element_type="f32" shape="12, 12, 3, 3" offset="532424" size="5184" />
			<output>
				<port id="0" precision="FP32" names="model.15.m.0.cv1.conv.weight">
					<dim>12</dim>
					<dim>12</dim>
					<dim>3</dim>
					<dim>3</dim>
				</port>
			</output>
		</layer>
		<layer id="207" name="/model.15/m.0/cv1/conv/Conv/WithoutBiases" type="Convolution" version="opset1">
			<data strides="1, 1" dilations="1, 1" pads_begin="1, 1" pads_end="1, 1" auto_pad="explicit" />
			<input>
				<port id="0" precision="FP32">
					<dim>1</dim>
					<dim>12</dim>
					<dim>80</dim>
					<dim>80</dim>
				</port>
				<port id="1" precision="FP32">
					<dim>12</dim>
					<dim>12</dim>
					<dim>3</dim>
					<dim>3</dim>
				</port>
			</input>
			<output>
				<port id="2" precision="FP32">
					<dim>1</dim>
					<dim>12</dim>
					<dim>80</dim>
					<dim>80</dim>
				</port>
			</output>
		</layer>
		<layer id="208" name="Reshape_1777" type="Const" version="opset1">
			<data element_type="f32" shape="1, 12, 1, 1" offset="537608" size="48" />
			<output>
				<port id="0" precision="FP32">
					<dim>1</dim>
					<dim>12</dim>
					<dim>1</dim>
					<dim>1</dim>
				</port>
			</output>
		</layer>
		<layer id="209" name="/model.15/m.0/cv1/conv/Conv" type="Add" version="opset1">
			<data auto_broadcast="numpy" />
			<input>
				<port id="0" precision="FP32">
					<dim>1</dim>
					<dim>12</dim>
					<dim>80</dim>
					<dim>80</dim>
				</port>
				<port id="1" precision="FP32">
					<dim>1</dim>
					<dim>12</dim>
					<dim>1</dim>
					<dim>1</dim>
				</port>
			</input>
			<output>
				<port id="2" precision="FP32" names="/model.15/m.0/cv1/conv/Conv_output_0">
					<dim>1</dim>
					<dim>12</dim>
					<dim>80</dim>
					<dim>80</dim>
				</port>
			</output>
		</layer>
		<layer id="210" name="/model.15/m.0/cv1/act/Mul" type="Swish" version="opset4">
			<input>
				<port id="0" precision="FP32">
					<dim>1</dim>
					<dim>12</dim>
					<dim>80</dim>
					<dim>80</dim>
				</port>
			</input>
			<output>
				<port id="1" precision="FP32" names="/model.15/m.0/cv1/act/Mul_output_0">
					<dim>1</dim>
					<dim>12</dim>
					<dim>80</dim>
					<dim>80</dim>
				</port>
			</output>
		</layer>
		<layer id="211" name="model.15.m.0.cv2.conv.weight" type="Const" version="opset1">
			<data element_type="f32" shape="12, 12, 3, 3" offset="537656" size="5184" />
			<output>
				<port id="0" precision="FP32" names="model.15.m.0.cv2.conv.weight">
					<dim>12</dim>
					<dim>12</dim>
					<dim>3</dim>
					<dim>3</dim>
				</port>
			</output>
		</layer>
		<layer id="212" name="/model.15/m.0/cv2/conv/Conv/WithoutBiases" type="Convolution" version="opset1">
			<data strides="1, 1" dilations="1, 1" pads_begin="1, 1" pads_end="1, 1" auto_pad="explicit" />
			<input>
				<port id="0" precision="FP32">
					<dim>1</dim>
					<dim>12</dim>
					<dim>80</dim>
					<dim>80</dim>
				</port>
				<port id="1" precision="FP32">
					<dim>12</dim>
					<dim>12</dim>
					<dim>3</dim>
					<dim>3</dim>
				</port>
			</input>
			<output>
				<port id="2" precision="FP32">
					<dim>1</dim>
					<dim>12</dim>
					<dim>80</dim>
					<dim>80</dim>
				</port>
			</output>
		</layer>
		<layer id="213" name="Reshape_1827" type="Const" version="opset1">
			<data element_type="f32" shape="1, 12, 1, 1" offset="542840" size="48" />
			<output>
				<port id="0" precision="FP32">
					<dim>1</dim>
					<dim>12</dim>
					<dim>1</dim>
					<dim>1</dim>
				</port>
			</output>
		</layer>
		<layer id="214" name="/model.15/m.0/cv2/conv/Conv" type="Add" version="opset1">
			<data auto_broadcast="numpy" />
			<input>
				<port id="0" precision="FP32">
					<dim>1</dim>
					<dim>12</dim>
					<dim>80</dim>
					<dim>80</dim>
				</port>
				<port id="1" precision="FP32">
					<dim>1</dim>
					<dim>12</dim>
					<dim>1</dim>
					<dim>1</dim>
				</port>
			</input>
			<output>
				<port id="2" precision="FP32" names="/model.15/m.0/cv2/conv/Conv_output_0">
					<dim>1</dim>
					<dim>12</dim>
					<dim>80</dim>
					<dim>80</dim>
				</port>
			</output>
		</layer>
		<layer id="215" name="/model.15/m.0/cv2/act/Mul" type="Swish" version="opset4">
			<input>
				<port id="0" precision="FP32">
					<dim>1</dim>
					<dim>12</dim>
					<dim>80</dim>
					<dim>80</dim>
				</port>
			</input>
			<output>
				<port id="1" precision="FP32" names="/model.15/m.0/cv2/act/Mul_output_0">
					<dim>1</dim>
					<dim>12</dim>
					<dim>80</dim>
					<dim>80</dim>
				</port>
			</output>
		</layer>
		<layer id="216" name="/model.15/Concat" type="Concat" version="opset1">
			<data axis="1" />
			<input>
				<port id="0" precision="FP32">
					<dim>1</dim>
					<dim>12</dim>
					<dim>80</dim>
					<dim>80</dim>
				</port>
				<port id="1" precision="FP32">
					<dim>1</dim>
					<dim>12</dim>
					<dim>80</dim>
					<dim>80</dim>
				</port>
				<port id="2" precision="FP32">
					<dim>1</dim>
					<dim>12</dim>
					<dim>80</dim>
					<dim>80</dim>
				</port>
			</input>
			<output>
				<port id="3" precision="FP32" names="/model.15/Concat_output_0">
					<dim>1</dim>
					<dim>36</dim>
					<dim>80</dim>
					<dim>80</dim>
				</port>
			</output>
		</layer>
		<layer id="217" name="model.15.cv2.conv.weight" type="Const" version="opset1">
			<data element_type="f32" shape="24, 36, 1, 1" offset="542888" size="3456" />
			<output>
				<port id="0" precision="FP32" names="model.15.cv2.conv.weight">
					<dim>24</dim>
					<dim>36</dim>
					<dim>1</dim>
					<dim>1</dim>
				</port>
			</output>
		</layer>
		<layer id="218" name="/model.15/cv2/conv/Conv/WithoutBiases" type="Convolution" version="opset1">
			<data strides="1, 1" dilations="1, 1" pads_begin="0, 0" pads_end="0, 0" auto_pad="explicit" />
			<input>
				<port id="0" precision="FP32">
					<dim>1</dim>
					<dim>36</dim>
					<dim>80</dim>
					<dim>80</dim>
				</port>
				<port id="1" precision="FP32">
					<dim>24</dim>
					<dim>36</dim>
					<dim>1</dim>
					<dim>1</dim>
				</port>
			</input>
			<output>
				<port id="2" precision="FP32">
					<dim>1</dim>
					<dim>24</dim>
					<dim>80</dim>
					<dim>80</dim>
				</port>
			</output>
		</layer>
		<layer id="219" name="Reshape_1878" type="Const" version="opset1">
			<data element_type="f32" shape="1, 24, 1, 1" offset="546344" size="96" />
			<output>
				<port id="0" precision="FP32">
					<dim>1</dim>
					<dim>24</dim>
					<dim>1</dim>
					<dim>1</dim>
				</port>
			</output>
		</layer>
		<layer id="220" name="/model.15/cv2/conv/Conv" type="Add" version="opset1">
			<data auto_broadcast="numpy" />
			<input>
				<port id="0" precision="FP32">
					<dim>1</dim>
					<dim>24</dim>
					<dim>80</dim>
					<dim>80</dim>
				</port>
				<port id="1" precision="FP32">
					<dim>1</dim>
					<dim>24</dim>
					<dim>1</dim>
					<dim>1</dim>
				</port>
			</input>
			<output>
				<port id="2" precision="FP32" names="/model.15/cv2/conv/Conv_output_0">
					<dim>1</dim>
					<dim>24</dim>
					<dim>80</dim>
					<dim>80</dim>
				</port>
			</output>
		</layer>
		<layer id="221" name="/model.15/cv2/act/Mul" type="Swish" version="opset4">
			<input>
				<port id="0" precision="FP32">
					<dim>1</dim>
					<dim>24</dim>
					<dim>80</dim>
					<dim>80</dim>
				</port>
			</input>
			<output>
				<port id="1" precision="FP32" names="/model.15/cv2/act/Mul_output_0">
					<dim>1</dim>
					<dim>24</dim>
					<dim>80</dim>
					<dim>80</dim>
				</port>
			</output>
		</layer>
		<layer id="222" name="model.16.conv.weight" type="Const" version="opset1">
			<data element_type="f32" shape="24, 24, 3, 3" offset="546440" size="20736" />
			<output>
				<port id="0" precision="FP32" names="model.16.conv.weight">
					<dim>24</dim>
					<dim>24</dim>
					<dim>3</dim>
					<dim>3</dim>
				</port>
			</output>
		</layer>
		<layer id="223" name="/model.16/conv/Conv/WithoutBiases" type="Convolution" version="opset1">
			<data strides="2, 2" dilations="1, 1" pads_begin="1, 1" pads_end="1, 1" auto_pad="explicit" />
			<input>
				<port id="0" precision="FP32">
					<dim>1</dim>
					<dim>24</dim>
					<dim>80</dim>
					<dim>80</dim>
				</port>
				<port id="1" precision="FP32">
					<dim>24</dim>
					<dim>24</dim>
					<dim>3</dim>
					<dim>3</dim>
				</port>
			</input>
			<output>
				<port id="2" precision="FP32">
					<dim>1</dim>
					<dim>24</dim>
					<dim>40</dim>
					<dim>40</dim>
				</port>
			</output>
		</layer>
		<layer id="224" name="Reshape_1928" type="Const" version="opset1">
			<data element_type="f32" shape="1, 24, 1, 1" offset="567176" size="96" />
			<output>
				<port id="0" precision="FP32">
					<dim>1</dim>
					<dim>24</dim>
					<dim>1</dim>
					<dim>1</dim>
				</port>
			</output>
		</layer>
		<layer id="225" name="/model.16/conv/Conv" type="Add" version="opset1">
			<data auto_broadcast="numpy" />
			<input>
				<port id="0" precision="FP32">
					<dim>1</dim>
					<dim>24</dim>
					<dim>40</dim>
					<dim>40</dim>
				</port>
				<port id="1" precision="FP32">
					<dim>1</dim>
					<dim>24</dim>
					<dim>1</dim>
					<dim>1</dim>
				</port>
			</input>
			<output>
				<port id="2" precision="FP32" names="/model.16/conv/Conv_output_0">
					<dim>1</dim>
					<dim>24</dim>
					<dim>40</dim>
					<dim>40</dim>
				</port>
			</output>
		</layer>
		<layer id="226" name="/model.16/act/Mul" type="Swish" version="opset4">
			<input>
				<port id="0" precision="FP32">
					<dim>1</dim>
					<dim>24</dim>
					<dim>40</dim>
					<dim>40</dim>
				</port>
			</input>
			<output>
				<port id="1" precision="FP32" names="/model.16/act/Mul_output_0">
					<dim>1</dim>
					<dim>24</dim>
					<dim>40</dim>
					<dim>40</dim>
				</port>
			</output>
		</layer>
		<layer id="227" name="/model.17/Concat" type="Concat" version="opset1">
			<data axis="1" />
			<input>
				<port id="0" precision="FP32">
					<dim>1</dim>
					<dim>24</dim>
					<dim>40</dim>
					<dim>40</dim>
				</port>
				<port id="1" precision="FP32">
					<dim>1</dim>
					<dim>40</dim>
					<dim>40</dim>
					<dim>40</dim>
				</port>
			</input>
			<output>
				<port id="2" precision="FP32" names="/model.17/Concat_output_0">
					<dim>1</dim>
					<dim>64</dim>
					<dim>40</dim>
					<dim>40</dim>
				</port>
			</output>
		</layer>
		<layer id="228" name="model.18.cv1.conv.weight" type="Const" version="opset1">
			<data element_type="f32" shape="40, 64, 1, 1" offset="567272" size="10240" />
			<output>
				<port id="0" precision="FP32" names="model.18.cv1.conv.weight">
					<dim>40</dim>
					<dim>64</dim>
					<dim>1</dim>
					<dim>1</dim>
				</port>
			</output>
		</layer>
		<layer id="229" name="/model.18/cv1/conv/Conv/WithoutBiases" type="Convolution" version="opset1">
			<data strides="1, 1" dilations="1, 1" pads_begin="0, 0" pads_end="0, 0" auto_pad="explicit" />
			<input>
				<port id="0" precision="FP32">
					<dim>1</dim>
					<dim>64</dim>
					<dim>40</dim>
					<dim>40</dim>
				</port>
				<port id="1" precision="FP32">
					<dim>40</dim>
					<dim>64</dim>
					<dim>1</dim>
					<dim>1</dim>
				</port>
			</input>
			<output>
				<port id="2" precision="FP32">
					<dim>1</dim>
					<dim>40</dim>
					<dim>40</dim>
					<dim>40</dim>
				</port>
			</output>
		</layer>
		<layer id="230" name="Reshape_1979" type="Const" version="opset1">
			<data element_type="f32" shape="1, 40, 1, 1" offset="577512" size="160" />
			<output>
				<port id="0" precision="FP32">
					<dim>1</dim>
					<dim>40</dim>
					<dim>1</dim>
					<dim>1</dim>
				</port>
			</output>
		</layer>
		<layer id="231" name="/model.18/cv1/conv/Conv" type="Add" version="opset1">
			<data auto_broadcast="numpy" />
			<input>
				<port id="0" precision="FP32">
					<dim>1</dim>
					<dim>40</dim>
					<dim>40</dim>
					<dim>40</dim>
				</port>
				<port id="1" precision="FP32">
					<dim>1</dim>
					<dim>40</dim>
					<dim>1</dim>
					<dim>1</dim>
				</port>
			</input>
			<output>
				<port id="2" precision="FP32" names="/model.18/cv1/conv/Conv_output_0">
					<dim>1</dim>
					<dim>40</dim>
					<dim>40</dim>
					<dim>40</dim>
				</port>
			</output>
		</layer>
		<layer id="232" name="/model.18/cv1/act/Mul" type="Swish" version="opset4">
			<input>
				<port id="0" precision="FP32">
					<dim>1</dim>
					<dim>40</dim>
					<dim>40</dim>
					<dim>40</dim>
				</port>
			</input>
			<output>
				<port id="1" precision="FP32" names="/model.18/cv1/act/Mul_output_0">
					<dim>1</dim>
					<dim>40</dim>
					<dim>40</dim>
					<dim>40</dim>
				</port>
			</output>
		</layer>
		<layer id="233" name="Constant_2009" type="Const" version="opset1">
			<data element_type="i64" shape="" offset="6656" size="8" />
			<output>
				<port id="0" precision="I64" />
			</output>
		</layer>
		<layer id="234" name="/model.18/Split" type="VariadicSplit" version="opset1">
			<input>
				<port id="0" precision="FP32">
					<dim>1</dim>
					<dim>40</dim>
					<dim>40</dim>
					<dim>40</dim>
				</port>
				<port id="1" precision="I64" />
				<port id="2" precision="I64">
					<dim>2</dim>
				</port>
			</input>
			<output>
				<port id="3" precision="FP32" names="/model.18/Split_output_0">
					<dim>1</dim>
					<dim>20</dim>
					<dim>40</dim>
					<dim>40</dim>
				</port>
				<port id="4" precision="FP32" names="/model.18/Split_output_1">
					<dim>1</dim>
					<dim>20</dim>
					<dim>40</dim>
					<dim>40</dim>
				</port>
			</output>
		</layer>
		<layer id="235" name="model.18.m.0.cv1.conv.weight" type="Const" version="opset1">
			<data element_type="f32" shape="20, 20, 3, 3" offset="577672" size="14400" />
			<output>
				<port id="0" precision="FP32" names="model.18.m.0.cv1.conv.weight">
					<dim>20</dim>
					<dim>20</dim>
					<dim>3</dim>
					<dim>3</dim>
				</port>
			</output>
		</layer>
		<layer id="236" name="/model.18/m.0/cv1/conv/Conv/WithoutBiases" type="Convolution" version="opset1">
			<data strides="1, 1" dilations="1, 1" pads_begin="1, 1" pads_end="1, 1" auto_pad="explicit" />
			<input>
				<port id="0" precision="FP32">
					<dim>1</dim>
					<dim>20</dim>
					<dim>40</dim>
					<dim>40</dim>
				</port>
				<port id="1" precision="FP32">
					<dim>20</dim>
					<dim>20</dim>
					<dim>3</dim>
					<dim>3</dim>
				</port>
			</input>
			<output>
				<port id="2" precision="FP32">
					<dim>1</dim>
					<dim>20</dim>
					<dim>40</dim>
					<dim>40</dim>
				</port>
			</output>
		</layer>
		<layer id="237" name="Reshape_2031" type="Const" version="opset1">
			<data element_type="f32" shape="1, 20, 1, 1" offset="592072" size="80" />
			<output>
				<port id="0" precision="FP32">
					<dim>1</dim>
					<dim>20</dim>
					<dim>1</dim>
					<dim>1</dim>
				</port>
			</output>
		</layer>
		<layer id="238" name="/model.18/m.0/cv1/conv/Conv" type="Add" version="opset1">
			<data auto_broadcast="numpy" />
			<input>
				<port id="0" precision="FP32">
					<dim>1</dim>
					<dim>20</dim>
					<dim>40</dim>
					<dim>40</dim>
				</port>
				<port id="1" precision="FP32">
					<dim>1</dim>
					<dim>20</dim>
					<dim>1</dim>
					<dim>1</dim>
				</port>
			</input>
			<output>
				<port id="2" precision="FP32" names="/model.18/m.0/cv1/conv/Conv_output_0">
					<dim>1</dim>
					<dim>20</dim>
					<dim>40</dim>
					<dim>40</dim>
				</port>
			</output>
		</layer>
		<layer id="239" name="/model.18/m.0/cv1/act/Mul" type="Swish" version="opset4">
			<input>
				<port id="0" precision="FP32">
					<dim>1</dim>
					<dim>20</dim>
					<dim>40</dim>
					<dim>40</dim>
				</port>
			</input>
			<output>
				<port id="1" precision="FP32" names="/model.18/m.0/cv1/act/Mul_output_0">
					<dim>1</dim>
					<dim>20</dim>
					<dim>40</dim>
					<dim>40</dim>
				</port>
			</output>
		</layer>
		<layer id="240" name="model.18.m.0.cv2.conv.weight" type="Const" version="opset1">
			<data element_type="f32" shape="20, 20, 3, 3" offset="592152" size="14400" />
			<output>
				<port id="0" precision="FP32" names="model.18.m.0.cv2.conv.weight">
					<dim>20</dim>
					<dim>20</dim>
					<dim>3</dim>
					<dim>3</dim>
				</port>
			</output>
		</layer>
		<layer id="241" name="/model.18/m.0/cv2/conv/Conv/WithoutBiases" type="Convolution" version="opset1">
			<data strides="1, 1" dilations="1, 1" pads_begin="1, 1" pads_end="1, 1" auto_pad="explicit" />
			<input>
				<port id="0" precision="FP32">
					<dim>1</dim>
					<dim>20</dim>
					<dim>40</dim>
					<dim>40</dim>
				</port>
				<port id="1" precision="FP32">
					<dim>20</dim>
					<dim>20</dim>
					<dim>3</dim>
					<dim>3</dim>
				</port>
			</input>
			<output>
				<port id="2" precision="FP32">
					<dim>1</dim>
					<dim>20</dim>
					<dim>40</dim>
					<dim>40</dim>
				</port>
			</output>
		</layer>
		<layer id="242" name="Reshape_2081" type="Const" version="opset1">
			<data element_type="f32" shape="1, 20, 1, 1" offset="606552" size="80" />
			<output>
				<port id="0" precision="FP32">
					<dim>1</dim>
					<dim>20</dim>
					<dim>1</dim>
					<dim>1</dim>
				</port>
			</output>
		</layer>
		<layer id="243" name="/model.18/m.0/cv2/conv/Conv" type="Add" version="opset1">
			<data auto_broadcast="numpy" />
			<input>
				<port id="0" precision="FP32">
					<dim>1</dim>
					<dim>20</dim>
					<dim>40</dim>
					<dim>40</dim>
				</port>
				<port id="1" precision="FP32">
					<dim>1</dim>
					<dim>20</dim>
					<dim>1</dim>
					<dim>1</dim>
				</port>
			</input>
			<output>
				<port id="2" precision="FP32" names="/model.18/m.0/cv2/conv/Conv_output_0">
					<dim>1</dim>
					<dim>20</dim>
					<dim>40</dim>
					<dim>40</dim>
				</port>
			</output>
		</layer>
		<layer id="244" name="/model.18/m.0/cv2/act/Mul" type="Swish" version="opset4">
			<input>
				<port id="0" precision="FP32">
					<dim>1</dim>
					<dim>20</dim>
					<dim>40</dim>
					<dim>40</dim>
				</port>
			</input>
			<output>
				<port id="1" precision="FP32" names="/model.18/m.0/cv2/act/Mul_output_0">
					<dim>1</dim>
					<dim>20</dim>
					<dim>40</dim>
					<dim>40</dim>
				</port>
			</output>
		</layer>
		<layer id="245" name="/model.18/Concat" type="Concat" version="opset1">
			<data axis="1" />
			<input>
				<port id="0" precision="FP32">
					<dim>1</dim>
					<dim>20</dim>
					<dim>40</dim>
					<dim>40</dim>
				</port>
				<port id="1" precision="FP32">
					<dim>1</dim>
					<dim>20</dim>
					<dim>40</dim>
					<dim>40</dim>
				</port>
				<port id="2" precision="FP32">
					<dim>1</dim>
					<dim>20</dim>
					<dim>40</dim>
					<dim>40</dim>
				</port>
			</input>
			<output>
				<port id="3" precision="FP32" names="/model.18/Concat_output_0">
					<dim>1</dim>
					<dim>60</dim>
					<dim>40</dim>
					<dim>40</dim>
				</port>
			</output>
		</layer>
		<layer id="246" name="model.18.cv2.conv.weight" type="Const" version="opset1">
			<data element_type="f32" shape="40, 60, 1, 1" offset="606632" size="9600" />
			<output>
				<port id="0" precision="FP32" names="model.18.cv2.conv.weight">
					<dim>40</dim>
					<dim>60</dim>
					<dim>1</dim>
					<dim>1</dim>
				</port>
			</output>
		</layer>
		<layer id="247" name="/model.18/cv2/conv/Conv/WithoutBiases" type="Convolution" version="opset1">
			<data strides="1, 1" dilations="1, 1" pads_begin="0, 0" pads_end="0, 0" auto_pad="explicit" />
			<input>
				<port id="0" precision="FP32">
					<dim>1</dim>
					<dim>60</dim>
					<dim>40</dim>
					<dim>40</dim>
				</port>
				<port id="1" precision="FP32">
					<dim>40</dim>
					<dim>60</dim>
					<dim>1</dim>
					<dim>1</dim>
				</port>
			</input>
			<output>
				<port id="2" precision="FP32">
					<dim>1</dim>
					<dim>40</dim>
					<dim>40</dim>
					<dim>40</dim>
				</port>
			</output>
		</layer>
		<layer id="248" name="Reshape_2132" type="Const" version="opset1">
			<data element_type="f32" shape="1, 40, 1, 1" offset="616232" size="160" />
			<output>
				<port id="0" precision="FP32">
					<dim>1</dim>
					<dim>40</dim>
					<dim>1</dim>
					<dim>1</dim>
				</port>
			</output>
		</layer>
		<layer id="249" name="/model.18/cv2/conv/Conv" type="Add" version="opset1">
			<data auto_broadcast="numpy" />
			<input>
				<port id="0" precision="FP32">
					<dim>1</dim>
					<dim>40</dim>
					<dim>40</dim>
					<dim>40</dim>
				</port>
				<port id="1" precision="FP32">
					<dim>1</dim>
					<dim>40</dim>
					<dim>1</dim>
					<dim>1</dim>
				</port>
			</input>
			<output>
				<port id="2" precision="FP32" names="/model.18/cv2/conv/Conv_output_0">
					<dim>1</dim>
					<dim>40</dim>
					<dim>40</dim>
					<dim>40</dim>
				</port>
			</output>
		</layer>
		<layer id="250" name="/model.18/cv2/act/Mul" type="Swish" version="opset4">
			<input>
				<port id="0" precision="FP32">
					<dim>1</dim>
					<dim>40</dim>
					<dim>40</dim>
					<dim>40</dim>
				</port>
			</input>
			<output>
				<port id="1" precision="FP32" names="/model.18/cv2/act/Mul_output_0">
					<dim>1</dim>
					<dim>40</dim>
					<dim>40</dim>
					<dim>40</dim>
				</port>
			</output>
		</layer>
		<layer id="251" name="model.19.conv.weight" type="Const" version="opset1">
			<data element_type="f32" shape="40, 40, 3, 3" offset="616392" size="57600" />
			<output>
				<port id="0" precision="FP32" names="model.19.conv.weight">
					<dim>40</dim>
					<dim>40</dim>
					<dim>3</dim>
					<dim>3</dim>
				</port>
			</output>
		</layer>
		<layer id="252" name="/model.19/conv/Conv/WithoutBiases" type="Convolution" version="opset1">
			<data strides="2, 2" dilations="1, 1" pads_begin="1, 1" pads_end="1, 1" auto_pad="explicit" />
			<input>
				<port id="0" precision="FP32">
					<dim>1</dim>
					<dim>40</dim>
					<dim>40</dim>
					<dim>40</dim>
				</port>
				<port id="1" precision="FP32">
					<dim>40</dim>
					<dim>40</dim>
					<dim>3</dim>
					<dim>3</dim>
				</port>
			</input>
			<output>
				<port id="2" precision="FP32">
					<dim>1</dim>
					<dim>40</dim>
					<dim>20</dim>
					<dim>20</dim>
				</port>
			</output>
		</layer>
		<layer id="253" name="Reshape_2182" type="Const" version="opset1">
			<data element_type="f32" shape="1, 40, 1, 1" offset="673992" size="160" />
			<output>
				<port id="0" precision="FP32">
					<dim>1</dim>
					<dim>40</dim>
					<dim>1</dim>
					<dim>1</dim>
				</port>
			</output>
		</layer>
		<layer id="254" name="/model.19/conv/Conv" type="Add" version="opset1">
			<data auto_broadcast="numpy" />
			<input>
				<port id="0" precision="FP32">
					<dim>1</dim>
					<dim>40</dim>
					<dim>20</dim>
					<dim>20</dim>
				</port>
				<port id="1" precision="FP32">
					<dim>1</dim>
					<dim>40</dim>
					<dim>1</dim>
					<dim>1</dim>
				</port>
			</input>
			<output>
				<port id="2" precision="FP32" names="/model.19/conv/Conv_output_0">
					<dim>1</dim>
					<dim>40</dim>
					<dim>20</dim>
					<dim>20</dim>
				</port>
			</output>
		</layer>
		<layer id="255" name="/model.19/act/Mul" type="Swish" version="opset4">
			<input>
				<port id="0" precision="FP32">
					<dim>1</dim>
					<dim>40</dim>
					<dim>20</dim>
					<dim>20</dim>
				</port>
			</input>
			<output>
				<port id="1" precision="FP32" names="/model.19/act/Mul_output_0">
					<dim>1</dim>
					<dim>40</dim>
					<dim>20</dim>
					<dim>20</dim>
				</port>
			</output>
		</layer>
		<layer id="256" name="/model.20/Concat" type="Concat" version="opset1">
			<data axis="1" />
			<input>
				<port id="0" precision="FP32">
					<dim>1</dim>
					<dim>40</dim>
					<dim>20</dim>
					<dim>20</dim>
				</port>
				<port id="1" precision="FP32">
					<dim>1</dim>
					<dim>72</dim>
					<dim>20</dim>
					<dim>20</dim>
				</port>
			</input>
			<output>
				<port id="2" precision="FP32" names="/model.20/Concat_output_0">
					<dim>1</dim>
					<dim>112</dim>
					<dim>20</dim>
					<dim>20</dim>
				</port>
			</output>
		</layer>
		<layer id="257" name="model.21.cv1.conv.weight" type="Const" version="opset1">
			<data element_type="f32" shape="72, 112, 1, 1" offset="674152" size="32256" />
			<output>
				<port id="0" precision="FP32" names="model.21.cv1.conv.weight">
					<dim>72</dim>
					<dim>112</dim>
					<dim>1</dim>
					<dim>1</dim>
				</port>
			</output>
		</layer>
		<layer id="258" name="/model.21/cv1/conv/Conv/WithoutBiases" type="Convolution" version="opset1">
			<data strides="1, 1" dilations="1, 1" pads_begin="0, 0" pads_end="0, 0" auto_pad="explicit" />
			<input>
				<port id="0" precision="FP32">
					<dim>1</dim>
					<dim>112</dim>
					<dim>20</dim>
					<dim>20</dim>
				</port>
				<port id="1" precision="FP32">
					<dim>72</dim>
					<dim>112</dim>
					<dim>1</dim>
					<dim>1</dim>
				</port>
			</input>
			<output>
				<port id="2" precision="FP32">
					<dim>1</dim>
					<dim>72</dim>
					<dim>20</dim>
					<dim>20</dim>
				</port>
			</output>
		</layer>
		<layer id="259" name="Reshape_2233" type="Const" version="opset1">
			<data element_type="f32" shape="1, 72, 1, 1" offset="706408" size="288" />
			<output>
				<port id="0" precision="FP32">
					<dim>1</dim>
					<dim>72</dim>
					<dim>1</dim>
					<dim>1</dim>
				</port>
			</output>
		</layer>
		<layer id="260" name="/model.21/cv1/conv/Conv" type="Add" version="opset1">
			<data auto_broadcast="numpy" />
			<input>
				<port id="0" precision="FP32">
					<dim>1</dim>
					<dim>72</dim>
					<dim>20</dim>
					<dim>20</dim>
				</port>
				<port id="1" precision="FP32">
					<dim>1</dim>
					<dim>72</dim>
					<dim>1</dim>
					<dim>1</dim>
				</port>
			</input>
			<output>
				<port id="2" precision="FP32" names="/model.21/cv1/conv/Conv_output_0">
					<dim>1</dim>
					<dim>72</dim>
					<dim>20</dim>
					<dim>20</dim>
				</port>
			</output>
		</layer>
		<layer id="261" name="/model.21/cv1/act/Mul" type="Swish" version="opset4">
			<input>
				<port id="0" precision="FP32">
					<dim>1</dim>
					<dim>72</dim>
					<dim>20</dim>
					<dim>20</dim>
				</port>
			</input>
			<output>
				<port id="1" precision="FP32" names="/model.21/cv1/act/Mul_output_0">
					<dim>1</dim>
					<dim>72</dim>
					<dim>20</dim>
					<dim>20</dim>
				</port>
			</output>
		</layer>
		<layer id="262" name="Constant_2263" type="Const" version="opset1">
			<data element_type="i64" shape="" offset="6656" size="8" />
			<output>
				<port id="0" precision="I64" />
			</output>
		</layer>
		<layer id="263" name="/model.21/Split" type="VariadicSplit" version="opset1">
			<input>
				<port id="0" precision="FP32">
					<dim>1</dim>
					<dim>72</dim>
					<dim>20</dim>
					<dim>20</dim>
				</port>
				<port id="1" precision="I64" />
				<port id="2" precision="I64">
					<dim>2</dim>
				</port>
			</input>
			<output>
				<port id="3" precision="FP32" names="/model.21/Split_output_0">
					<dim>1</dim>
					<dim>36</dim>
					<dim>20</dim>
					<dim>20</dim>
				</port>
				<port id="4" precision="FP32" names="/model.21/Split_output_1">
					<dim>1</dim>
					<dim>36</dim>
					<dim>20</dim>
					<dim>20</dim>
				</port>
			</output>
		</layer>
		<layer id="264" name="model.21.m.0.cv1.conv.weight" type="Const" version="opset1">
			<data element_type="f32" shape="36, 36, 3, 3" offset="706696" size="46656" />
			<output>
				<port id="0" precision="FP32" names="model.21.m.0.cv1.conv.weight">
					<dim>36</dim>
					<dim>36</dim>
					<dim>3</dim>
					<dim>3</dim>
				</port>
			</output>
		</layer>
		<layer id="265" name="/model.21/m.0/cv1/conv/Conv/WithoutBiases" type="Convolution" version="opset1">
			<data strides="1, 1" dilations="1, 1" pads_begin="1, 1" pads_end="1, 1" auto_pad="explicit" />
			<input>
				<port id="0" precision="FP32">
					<dim>1</dim>
					<dim>36</dim>
					<dim>20</dim>
					<dim>20</dim>
				</port>
				<port id="1" precision="FP32">
					<dim>36</dim>
					<dim>36</dim>
					<dim>3</dim>
					<dim>3</dim>
				</port>
			</input>
			<output>
				<port id="2" precision="FP32">
					<dim>1</dim>
					<dim>36</dim>
					<dim>20</dim>
					<dim>20</dim>
				</port>
			</output>
		</layer>
		<layer id="266" name="Reshape_2285" type="Const" version="opset1">
			<data element_type="f32" shape="1, 36, 1, 1" offset="753352" size="144" />
			<output>
				<port id="0" precision="FP32">
					<dim>1</dim>
					<dim>36</dim>
					<dim>1</dim>
					<dim>1</dim>
				</port>
			</output>
		</layer>
		<layer id="267" name="/model.21/m.0/cv1/conv/Conv" type="Add" version="opset1">
			<data auto_broadcast="numpy" />
			<input>
				<port id="0" precision="FP32">
					<dim>1</dim>
					<dim>36</dim>
					<dim>20</dim>
					<dim>20</dim>
				</port>
				<port id="1" precision="FP32">
					<dim>1</dim>
					<dim>36</dim>
					<dim>1</dim>
					<dim>1</dim>
				</port>
			</input>
			<output>
				<port id="2" precision="FP32" names="/model.21/m.0/cv1/conv/Conv_output_0">
					<dim>1</dim>
					<dim>36</dim>
					<dim>20</dim>
					<dim>20</dim>
				</port>
			</output>
		</layer>
		<layer id="268" name="/model.21/m.0/cv1/act/Mul" type="Swish" version="opset4">
			<input>
				<port id="0" precision="FP32">
					<dim>1</dim>
					<dim>36</dim>
					<dim>20</dim>
					<dim>20</dim>
				</port>
			</input>
			<output>
				<port id="1" precision="FP32" names="/model.21/m.0/cv1/act/Mul_output_0">
					<dim>1</dim>
					<dim>36</dim>
					<dim>20</dim>
					<dim>20</dim>
				</port>
			</output>
		</layer>
		<layer id="269" name="model.21.m.0.cv2.conv.weight" type="Const" version="opset1">
			<data element_type="f32" shape="36, 36, 3, 3" offset="753496" size="46656" />
			<output>
				<port id="0" precision="FP32" names="model.21.m.0.cv2.conv.weight">
					<dim>36</dim>
					<dim>36</dim>
					<dim>3</dim>
					<dim>3</dim>
				</port>
			</output>
		</layer>
		<layer id="270" name="/model.21/m.0/cv2/conv/Conv/WithoutBiases" type="Convolution" version="opset1">
			<data strides="1, 1" dilations="1, 1" pads_begin="1, 1" pads_end="1, 1" auto_pad="explicit" />
			<input>
				<port id="0" precision="FP32">
					<dim>1</dim>
					<dim>36</dim>
					<dim>20</dim>
					<dim>20</dim>
				</port>
				<port id="1" precision="FP32">
					<dim>36</dim>
					<dim>36</dim>
					<dim>3</dim>
					<dim>3</dim>
				</port>
			</input>
			<output>
				<port id="2" precision="FP32">
					<dim>1</dim>
					<dim>36</dim>
					<dim>20</dim>
					<dim>20</dim>
				</port>
			</output>
		</layer>
		<layer id="271" name="Reshape_2335" type="Const" version="opset1">
			<data element_type="f32" shape="1, 36, 1, 1" offset="800152" size="144" />
			<output>
				<port id="0" precision="FP32">
					<dim>1</dim>
					<dim>36</dim>
					<dim>1</dim>
					<dim>1</dim>
				</port>
			</output>
		</layer>
		<layer id="272" name="/model.21/m.0/cv2/conv/Conv" type="Add" version="opset1">
			<data auto_broadcast="numpy" />
			<input>
				<port id="0" precision="FP32">
					<dim>1</dim>
					<dim>36</dim>
					<dim>20</dim>
					<dim>20</dim>
				</port>
				<port id="1" precision="FP32">
					<dim>1</dim>
					<dim>36</dim>
					<dim>1</dim>
					<dim>1</dim>
				</port>
			</input>
			<output>
				<port id="2" precision="FP32" names="/model.21/m.0/cv2/conv/Conv_output_0">
					<dim>1</dim>
					<dim>36</dim>
					<dim>20</dim>
					<dim>20</dim>
				</port>
			</output>
		</layer>
		<layer id="273" name="/model.21/m.0/cv2/act/Mul" type="Swish" version="opset4">
			<input>
				<port id="0" precision="FP32">
					<dim>1</dim>
					<dim>36</dim>
					<dim>20</dim>
					<dim>20</dim>
				</port>
			</input>
			<output>
				<port id="1" precision="FP32" names="/model.21/m.0/cv2/act/Mul_output_0">
					<dim>1</dim>
					<dim>36</dim>
					<dim>20</dim>
					<dim>20</dim>
				</port>
			</output>
		</layer>
		<layer id="274" name="/model.21/Concat" type="Concat" version="opset1">
			<data axis="1" />
			<input>
				<port id="0" precision="FP32">
					<dim>1</dim>
					<dim>36</dim>
					<dim>20</dim>
					<dim>20</dim>
				</port>
				<port id="1" precision="FP32">
					<dim>1</dim>
					<dim>36</dim>
					<dim>20</dim>
					<dim>20</dim>
				</port>
				<port id="2" precision="FP32">
					<dim>1</dim>
					<dim>36</dim>
					<dim>20</dim>
					<dim>20</dim>
				</port>
			</input>
			<output>
				<port id="3" precision="FP32" names="/model.21/Concat_output_0">
					<dim>1</dim>
					<dim>108</dim>
					<dim>20</dim>
					<dim>20</dim>
				</port>
			</output>
		</layer>
		<layer id="275" name="model.21.cv2.conv.weight" type="Const" version="opset1">
			<data element_type="f32" shape="72, 108, 1, 1" offset="800296" size="31104" />
			<output>
				<port id="0" precision="FP32" names="model.21.cv2.conv.weight">
					<dim>72</dim>
					<dim>108</dim>
					<dim>1</dim>
					<dim>1</dim>
				</port>
			</output>
		</layer>
		<layer id="276" name="/model.21/cv2/conv/Conv/WithoutBiases" type="Convolution" version="opset1">
			<data strides="1, 1" dilations="1, 1" pads_begin="0, 0" pads_end="0, 0" auto_pad="explicit" />
			<input>
				<port id="0" precision="FP32">
					<dim>1</dim>
					<dim>108</dim>
					<dim>20</dim>
					<dim>20</dim>
				</port>
				<port id="1" precision="FP32">
					<dim>72</dim>
					<dim>108</dim>
					<dim>1</dim>
					<dim>1</dim>
				</port>
			</input>
			<output>
				<port id="2" precision="FP32">
					<dim>1</dim>
					<dim>72</dim>
					<dim>20</dim>
					<dim>20</dim>
				</port>
			</output>
		</layer>
		<layer id="277" name="Reshape_2386" type="Const" version="opset1">
			<data element_type="f32" shape="1, 72, 1, 1" offset="831400" size="288" />
			<output>
				<port id="0" precision="FP32">
					<dim>1</dim>
					<dim>72</dim>
					<dim>1</dim>
					<dim>1</dim>
				</port>
			</output>
		</layer>
		<layer id="278" name="/model.21/cv2/conv/Conv" type="Add" version="opset1">
			<data auto_broadcast="numpy" />
			<input>
				<port id="0" precision="FP32">
					<dim>1</dim>
					<dim>72</dim>
					<dim>20</dim>
					<dim>20</dim>
				</port>
				<port id="1" precision="FP32">
					<dim>1</dim>
					<dim>72</dim>
					<dim>1</dim>
					<dim>1</dim>
				</port>
			</input>
			<output>
				<port id="2" precision="FP32" names="/model.21/cv2/conv/Conv_output_0">
					<dim>1</dim>
					<dim>72</dim>
					<dim>20</dim>
					<dim>20</dim>
				</port>
			</output>
		</layer>
		<layer id="279" name="/model.21/cv2/act/Mul" type="Swish" version="opset4">
			<input>
				<port id="0" precision="FP32">
					<dim>1</dim>
					<dim>72</dim>
					<dim>20</dim>
					<dim>20</dim>
				</port>
			</input>
			<output>
				<port id="1" precision="FP32" names="/model.21/cv2/act/Mul_output_0">
					<dim>1</dim>
					<dim>72</dim>
					<dim>20</dim>
					<dim>20</dim>
				</port>
			</output>
		</layer>
		<layer id="280" name="model.22.cvks.0.0.conv.weight" type="Const" version="opset1">
			<data element_type="f32" shape="49, 72, 3, 3" offset="831688" size="127008" />
			<output>
				<port id="0" precision="FP32" names="model.22.cvks.0.0.conv.weight">
					<dim>49</dim>
					<dim>72</dim>
					<dim>3</dim>
					<dim>3</dim>
				</port>
			</output>
		</layer>
		<layer id="281" name="/model.22/cvks.0/cvks.0.0/conv/Conv/WithoutBiases" type="Convolution" version="opset1">
			<data strides="1, 1" dilations="1, 1" pads_begin="1, 1" pads_end="1, 1" auto_pad="explicit" />
			<input>
				<port id="0" precision="FP32">
					<dim>1</dim>
					<dim>72</dim>
					<dim>20</dim>
					<dim>20</dim>
				</port>
				<port id="1" precision="FP32">
					<dim>49</dim>
					<dim>72</dim>
					<dim>3</dim>
					<dim>3</dim>
				</port>
			</input>
			<output>
				<port id="2" precision="FP32">
					<dim>1</dim>
					<dim>49</dim>
					<dim>20</dim>
					<dim>20</dim>
				</port>
			</output>
		</layer>
		<layer id="282" name="Reshape_2436" type="Const" version="opset1">
			<data element_type="f32" shape="1, 49, 1, 1" offset="958696" size="196" />
			<output>
				<port id="0" precision="FP32">
					<dim>1</dim>
					<dim>49</dim>
					<dim>1</dim>
					<dim>1</dim>
				</port>
			</output>
		</layer>
		<layer id="283" name="/model.22/cvks.0/cvks.0.0/conv/Conv" type="Add" version="opset1">
			<data auto_broadcast="numpy" />
			<input>
				<port id="0" precision="FP32">
					<dim>1</dim>
					<dim>49</dim>
					<dim>20</dim>
					<dim>20</dim>
				</port>
				<port id="1" precision="FP32">
					<dim>1</dim>
					<dim>49</dim>
					<dim>1</dim>
					<dim>1</dim>
				</port>
			</input>
			<output>
				<port id="2" precision="FP32" names="/model.22/cvks.0/cvks.0.0/conv/Conv_output_0">
					<dim>1</dim>
					<dim>49</dim>
					<dim>20</dim>
					<dim>20</dim>
				</port>
			</output>
		</layer>
		<layer id="284" name="/model.22/cvks.0/cvks.0.0/act/Mul" type="Swish" version="opset4">
			<input>
				<port id="0" precision="FP32">
					<dim>1</dim>
					<dim>49</dim>
					<dim>20</dim>
					<dim>20</dim>
				</port>
			</input>
			<output>
				<port id="1" precision="FP32" names="/model.22/cvks.0/cvks.0.0/act/Mul_output_0">
					<dim>1</dim>
					<dim>49</dim>
					<dim>20</dim>
					<dim>20</dim>
				</port>
			</output>
		</layer>
		<layer id="285" name="model.22.cvks.0.1.conv.weight" type="Const" version="opset1">
			<data element_type="f32" shape="49, 49, 3, 3" offset="958892" size="86436" />
			<output>
				<port id="0" precision="FP32" names="model.22.cvks.0.1.conv.weight">
					<dim>49</dim>
					<dim>49</dim>
					<dim>3</dim>
					<dim>3</dim>
				</port>
			</output>
		</layer>
		<layer id="286" name="/model.22/cvks.0/cvks.0.1/conv/Conv/WithoutBiases" type="Convolution" version="opset1">
			<data strides="1, 1" dilations="1, 1" pads_begin="1, 1" pads_end="1, 1" auto_pad="explicit" />
			<input>
				<port id="0" precision="FP32">
					<dim>1</dim>
					<dim>49</dim>
					<dim>20</dim>
					<dim>20</dim>
				</port>
				<port id="1" precision="FP32">
					<dim>49</dim>
					<dim>49</dim>
					<dim>3</dim>
					<dim>3</dim>
				</port>
			</input>
			<output>
				<port id="2" precision="FP32">
					<dim>1</dim>
					<dim>49</dim>
					<dim>20</dim>
					<dim>20</dim>
				</port>
			</output>
		</layer>
		<layer id="287" name="Reshape_2486" type="Const" version="opset1">
			<data element_type="f32" shape="1, 49, 1, 1" offset="1045328" size="196" />
			<output>
				<port id="0" precision="FP32">
					<dim>1</dim>
					<dim>49</dim>
					<dim>1</dim>
					<dim>1</dim>
				</port>
			</output>
		</layer>
		<layer id="288" name="/model.22/cvks.0/cvks.0.1/conv/Conv" type="Add" version="opset1">
			<data auto_broadcast="numpy" />
			<input>
				<port id="0" precision="FP32">
					<dim>1</dim>
					<dim>49</dim>
					<dim>20</dim>
					<dim>20</dim>
				</port>
				<port id="1" precision="FP32">
					<dim>1</dim>
					<dim>49</dim>
					<dim>1</dim>
					<dim>1</dim>
				</port>
			</input>
			<output>
				<port id="2" precision="FP32" names="/model.22/cvks.0/cvks.0.1/conv/Conv_output_0">
					<dim>1</dim>
					<dim>49</dim>
					<dim>20</dim>
					<dim>20</dim>
				</port>
			</output>
		</layer>
		<layer id="289" name="/model.22/cvks.0/cvks.0.1/act/Mul" type="Swish" version="opset4">
			<input>
				<port id="0" precision="FP32">
					<dim>1</dim>
					<dim>49</dim>
					<dim>20</dim>
					<dim>20</dim>
				</port>
			</input>
			<output>
				<port id="1" precision="FP32" names="/model.22/cvks.0/cvks.0.1/act/Mul_output_0">
					<dim>1</dim>
					<dim>49</dim>
					<dim>20</dim>
					<dim>20</dim>
				</port>
			</output>
		</layer>
		<layer id="290" name="model.22.cvks.0.2.weight" type="Const" version="opset1">
			<data element_type="f32" shape="49, 49, 1, 1" offset="1045524" size="9604" />
			<output>
				<port id="0" precision="FP32" names="model.22.cvks.0.2.weight">
					<dim>49</dim>
					<dim>49</dim>
					<dim>1</dim>
					<dim>1</dim>
				</port>
			</output>
		</layer>
		<layer id="291" name="/model.22/cvks.0/cvks.0.2/Conv/WithoutBiases" type="Convolution" version="opset1">
			<data strides="1, 1" dilations="1, 1" pads_begin="0, 0" pads_end="0, 0" auto_pad="explicit" />
			<input>
				<port id="0" precision="FP32">
					<dim>1</dim>
					<dim>49</dim>
					<dim>20</dim>
					<dim>20</dim>
				</port>
				<port id="1" precision="FP32">
					<dim>49</dim>
					<dim>49</dim>
					<dim>1</dim>
					<dim>1</dim>
				</port>
			</input>
			<output>
				<port id="2" precision="FP32">
					<dim>1</dim>
					<dim>49</dim>
					<dim>20</dim>
					<dim>20</dim>
				</port>
			</output>
		</layer>
		<layer id="292" name="Reshape_2536" type="Const" version="opset1">
			<data element_type="f32" shape="1, 49, 1, 1" offset="1055128" size="196" />
			<output>
				<port id="0" precision="FP32">
					<dim>1</dim>
					<dim>49</dim>
					<dim>1</dim>
					<dim>1</dim>
				</port>
			</output>
		</layer>
		<layer id="293" name="/model.22/cvks.0/cvks.0.2/Conv" type="Add" version="opset1">
			<data auto_broadcast="numpy" />
			<input>
				<port id="0" precision="FP32">
					<dim>1</dim>
					<dim>49</dim>
					<dim>20</dim>
					<dim>20</dim>
				</port>
				<port id="1" precision="FP32">
					<dim>1</dim>
					<dim>49</dim>
					<dim>1</dim>
					<dim>1</dim>
				</port>
			</input>
			<output>
				<port id="2" precision="FP32" names="/model.22/cvks.0/cvks.0.2/Conv_output_0">
					<dim>1</dim>
					<dim>49</dim>
					<dim>20</dim>
					<dim>20</dim>
				</port>
			</output>
		</layer>
		<layer id="294" name="Constant_8486" type="Const" version="opset1">
			<data element_type="i64" shape="2" offset="1055324" size="16" />
			<output>
				<port id="0" precision="I64">
					<dim>2</dim>
				</port>
			</output>
		</layer>
		<layer id="295" name="Constant_8489" type="Const" version="opset1">
			<data element_type="i64" shape="2" offset="1055340" size="16" />
			<output>
				<port id="0" precision="I64">
					<dim>2</dim>
				</port>
			</output>
		</layer>
		<layer id="296" name="Constant_8492" type="Const" version="opset1">
			<data element_type="i64" shape="2" offset="1055356" size="16" />
			<output>
				<port id="0" precision="I64">
					<dim>2</dim>
				</port>
			</output>
		</layer>
		<layer id="297" name="/model.22/Slice" type="StridedSlice" version="opset1">
			<data begin_mask="1, 0" end_mask="1, 0" new_axis_mask="" shrink_axis_mask="" ellipsis_mask="" />
			<input>
				<port id="0" precision="FP32">
					<dim>1</dim>
					<dim>49</dim>
					<dim>20</dim>
					<dim>20</dim>
				</port>
				<port id="1" precision="I64">
					<dim>2</dim>
				</port>
				<port id="2" precision="I64">
					<dim>2</dim>
				</port>
				<port id="3" precision="I64">
					<dim>2</dim>
				</port>
			</input>
			<output>
				<port id="4" precision="FP32" names="/model.22/Slice_output_0">
					<dim>1</dim>
					<dim>48</dim>
					<dim>20</dim>
					<dim>20</dim>
				</port>
			</output>
		</layer>
		<layer id="298" name="model.22.cvc.0.0.conv.weight" type="Const" version="opset1">
			<data element_type="f32" shape="72, 72, 3, 3" offset="1055372" size="186624" />
			<output>
				<port id="0" precision="FP32" names="model.22.cvc.0.0.conv.weight">
					<dim>72</dim>
					<dim>72</dim>
					<dim>3</dim>
					<dim>3</dim>
				</port>
			</output>
		</layer>
		<layer id="299" name="/model.22/cvc.0/cvc.0.0/conv/Conv/WithoutBiases" type="Convolution" version="opset1">
			<data strides="1, 1" dilations="1, 1" pads_begin="1, 1" pads_end="1, 1" auto_pad="explicit" />
			<input>
				<port id="0" precision="FP32">
					<dim>1</dim>
					<dim>72</dim>
					<dim>20</dim>
					<dim>20</dim>
				</port>
				<port id="1" precision="FP32">
					<dim>72</dim>
					<dim>72</dim>
					<dim>3</dim>
					<dim>3</dim>
				</port>
			</input>
			<output>
				<port id="2" precision="FP32">
					<dim>1</dim>
					<dim>72</dim>
					<dim>20</dim>
					<dim>20</dim>
				</port>
			</output>
		</layer>
		<layer id="300" name="Reshape_2589" type="Const" version="opset1">
			<data element_type="f32" shape="1, 72, 1, 1" offset="1241996" size="288" />
			<output>
				<port id="0" precision="FP32">
					<dim>1</dim>
					<dim>72</dim>
					<dim>1</dim>
					<dim>1</dim>
				</port>
			</output>
		</layer>
		<layer id="301" name="/model.22/cvc.0/cvc.0.0/conv/Conv" type="Add" version="opset1">
			<data auto_broadcast="numpy" />
			<input>
				<port id="0" precision="FP32">
					<dim>1</dim>
					<dim>72</dim>
					<dim>20</dim>
					<dim>20</dim>
				</port>
				<port id="1" precision="FP32">
					<dim>1</dim>
					<dim>72</dim>
					<dim>1</dim>
					<dim>1</dim>
				</port>
			</input>
			<output>
				<port id="2" precision="FP32" names="/model.22/cvc.0/cvc.0.0/conv/Conv_output_0">
					<dim>1</dim>
					<dim>72</dim>
					<dim>20</dim>
					<dim>20</dim>
				</port>
			</output>
		</layer>
		<layer id="302" name="/model.22/cvc.0/cvc.0.0/act/Mul" type="Swish" version="opset4">
			<input>
				<port id="0" precision="FP32">
					<dim>1</dim>
					<dim>72</dim>
					<dim>20</dim>
					<dim>20</dim>
				</port>
			</input>
			<output>
				<port id="1" precision="FP32" names="/model.22/cvc.0/cvc.0.0/act/Mul_output_0">
					<dim>1</dim>
					<dim>72</dim>
					<dim>20</dim>
					<dim>20</dim>
				</port>
			</output>
		</layer>
		<layer id="303" name="model.22.cvc.0.1.conv.weight" type="Const" version="opset1">
			<data element_type="f32" shape="72, 72, 3, 3" offset="1242284" size="186624" />
			<output>
				<port id="0" precision="FP32" names="model.22.cvc.0.1.conv.weight">
					<dim>72</dim>
					<dim>72</dim>
					<dim>3</dim>
					<dim>3</dim>
				</port>
			</output>
		</layer>
		<layer id="304" name="/model.22/cvc.0/cvc.0.1/conv/Conv/WithoutBiases" type="Convolution" version="opset1">
			<data strides="1, 1" dilations="1, 1" pads_begin="1, 1" pads_end="1, 1" auto_pad="explicit" />
			<input>
				<port id="0" precision="FP32">
					<dim>1</dim>
					<dim>72</dim>
					<dim>20</dim>
					<dim>20</dim>
				</port>
				<port id="1" precision="FP32">
					<dim>72</dim>
					<dim>72</dim>
					<dim>3</dim>
					<dim>3</dim>
				</port>
			</input>
			<output>
				<port id="2" precision="FP32">
					<dim>1</dim>
					<dim>72</dim>
					<dim>20</dim>
					<dim>20</dim>
				</port>
			</output>
		</layer>
		<layer id="305" name="Reshape_2639" type="Const" version="opset1">
			<data element_type="f32" shape="1, 72, 1, 1" offset="1428908" size="288" />
			<output>
				<port id="0" precision="FP32">
					<dim>1</dim>
					<dim>72</dim>
					<dim>1</dim>
					<dim>1</dim>
				</port>
			</output>
		</layer>
		<layer id="306" name="/model.22/cvc.0/cvc.0.1/conv/Conv" type="Add" version="opset1">
			<data auto_broadcast="numpy" />
			<input>
				<port id="0" precision="FP32">
					<dim>1</dim>
					<dim>72</dim>
					<dim>20</dim>
					<dim>20</dim>
				</port>
				<port id="1" precision="FP32">
					<dim>1</dim>
					<dim>72</dim>
					<dim>1</dim>
					<dim>1</dim>
				</port>
			</input>
			<output>
				<port id="2" precision="FP32" names="/model.22/cvc.0/cvc.0.1/conv/Conv_output_0">
					<dim>1</dim>
					<dim>72</dim>
					<dim>20</dim>
					<dim>20</dim>
				</port>
			</output>
		</layer>
		<layer id="307" name="/model.22/cvc.0/cvc.0.1/act/Mul" type="Swish" version="opset4">
			<input>
				<port id="0" precision="FP32">
					<dim>1</dim>
					<dim>72</dim>
					<dim>20</dim>
					<dim>20</dim>
				</port>
			</input>
			<output>
				<port id="1" precision="FP32" names="/model.22/cvc.0/cvc.0.1/act/Mul_output_0">
					<dim>1</dim>
					<dim>72</dim>
					<dim>20</dim>
					<dim>20</dim>
				</port>
			</output>
		</layer>
		<layer id="308" name="model.22.cvc.0.2.weight" type="Const" version="opset1">
			<data element_type="f32" shape="1, 72, 1, 1" offset="1429196" size="288" />
			<output>
				<port id="0" precision="FP32" names="model.22.cvc.0.2.weight">
					<dim>1</dim>
					<dim>72</dim>
					<dim>1</dim>
					<dim>1</dim>
				</port>
			</output>
		</layer>
		<layer id="309" name="/model.22/cvc.0/cvc.0.2/Conv/WithoutBiases" type="Convolution" version="opset1">
			<data strides="1, 1" dilations="1, 1" pads_begin="0, 0" pads_end="0, 0" auto_pad="explicit" />
			<input>
				<port id="0" precision="FP32">
					<dim>1</dim>
					<dim>72</dim>
					<dim>20</dim>
					<dim>20</dim>
				</port>
				<port id="1" precision="FP32">
					<dim>1</dim>
					<dim>72</dim>
					<dim>1</dim>
					<dim>1</dim>
				</port>
			</input>
			<output>
				<port id="2" precision="FP32">
					<dim>1</dim>
					<dim>1</dim>
					<dim>20</dim>
					<dim>20</dim>
				</port>
			</output>
		</layer>
		<layer id="310" name="Reshape_2689" type="Const" version="opset1">
			<data element_type="f32" shape="1, 1, 1, 1" offset="1429484" size="4" />
			<output>
				<port id="0" precision="FP32">
					<dim>1</dim>
					<dim>1</dim>
					<dim>1</dim>
					<dim>1</dim>
				</port>
			</output>
		</layer>
		<layer id="311" name="/model.22/cvc.0/cvc.0.2/Conv" type="Add" version="opset1">
			<data auto_broadcast="numpy" />
			<input>
				<port id="0" precision="FP32">
					<dim>1</dim>
					<dim>1</dim>
					<dim>20</dim>
					<dim>20</dim>
				</port>
				<port id="1" precision="FP32">
					<dim>1</dim>
					<dim>1</dim>
					<dim>1</dim>
					<dim>1</dim>
				</port>
			</input>
			<output>
				<port id="2" precision="FP32" names="/model.22/cvc.0/cvc.0.2/Conv_output_0">
					<dim>1</dim>
					<dim>1</dim>
					<dim>20</dim>
					<dim>20</dim>
				</port>
			</output>
		</layer>
		<layer id="312" name="Constant_8498" type="Const" version="opset1">
			<data element_type="i64" shape="2" offset="1055340" size="16" />
			<output>
				<port id="0" precision="I64">
					<dim>2</dim>
				</port>
			</output>
		</layer>
		<layer id="313" name="Constant_8501" type="Const" version="opset1">
			<data element_type="i64" shape="2" offset="1429488" size="16" />
			<output>
				<port id="0" precision="I64">
					<dim>2</dim>
				</port>
			</output>
		</layer>
		<layer id="314" name="Constant_8504" type="Const" version="opset1">
			<data element_type="i64" shape="2" offset="1055356" size="16" />
			<output>
				<port id="0" precision="I64">
					<dim>2</dim>
				</port>
			</output>
		</layer>
		<layer id="315" name="/model.22/Slice_1" type="StridedSlice" version="opset1">
			<data begin_mask="1, 0" end_mask="1, 0" new_axis_mask="" shrink_axis_mask="" ellipsis_mask="" />
			<input>
				<port id="0" precision="FP32">
					<dim>1</dim>
					<dim>49</dim>
					<dim>20</dim>
					<dim>20</dim>
				</port>
				<port id="1" precision="I64">
					<dim>2</dim>
				</port>
				<port id="2" precision="I64">
					<dim>2</dim>
				</port>
				<port id="3" precision="I64">
					<dim>2</dim>
				</port>
			</input>
			<output>
				<port id="4" precision="FP32" names="/model.22/Slice_1_output_0">
					<dim>1</dim>
					<dim>1</dim>
					<dim>20</dim>
					<dim>20</dim>
				</port>
			</output>
		</layer>
		<layer id="316" name="model.22.cvr.0.0.conv.weight" type="Const" version="opset1">
			<data element_type="f32" shape="72, 72, 3, 3" offset="1429504" size="186624" />
			<output>
				<port id="0" precision="FP32" names="model.22.cvr.0.0.conv.weight">
					<dim>72</dim>
					<dim>72</dim>
					<dim>3</dim>
					<dim>3</dim>
				</port>
			</output>
		</layer>
		<layer id="317" name="/model.22/cvr.0/cvr.0.0/conv/Conv/WithoutBiases" type="Convolution" version="opset1">
			<data strides="1, 1" dilations="1, 1" pads_begin="1, 1" pads_end="1, 1" auto_pad="explicit" />
			<input>
				<port id="0" precision="FP32">
					<dim>1</dim>
					<dim>72</dim>
					<dim>20</dim>
					<dim>20</dim>
				</port>
				<port id="1" precision="FP32">
					<dim>72</dim>
					<dim>72</dim>
					<dim>3</dim>
					<dim>3</dim>
				</port>
			</input>
			<output>
				<port id="2" precision="FP32">
					<dim>1</dim>
					<dim>72</dim>
					<dim>20</dim>
					<dim>20</dim>
				</port>
			</output>
		</layer>
		<layer id="318" name="Reshape_2742" type="Const" version="opset1">
			<data element_type="f32" shape="1, 72, 1, 1" offset="1616128" size="288" />
			<output>
				<port id="0" precision="FP32">
					<dim>1</dim>
					<dim>72</dim>
					<dim>1</dim>
					<dim>1</dim>
				</port>
			</output>
		</layer>
		<layer id="319" name="/model.22/cvr.0/cvr.0.0/conv/Conv" type="Add" version="opset1">
			<data auto_broadcast="numpy" />
			<input>
				<port id="0" precision="FP32">
					<dim>1</dim>
					<dim>72</dim>
					<dim>20</dim>
					<dim>20</dim>
				</port>
				<port id="1" precision="FP32">
					<dim>1</dim>
					<dim>72</dim>
					<dim>1</dim>
					<dim>1</dim>
				</port>
			</input>
			<output>
				<port id="2" precision="FP32" names="/model.22/cvr.0/cvr.0.0/conv/Conv_output_0">
					<dim>1</dim>
					<dim>72</dim>
					<dim>20</dim>
					<dim>20</dim>
				</port>
			</output>
		</layer>
		<layer id="320" name="/model.22/cvr.0/cvr.0.0/act/Mul" type="Swish" version="opset4">
			<input>
				<port id="0" precision="FP32">
					<dim>1</dim>
					<dim>72</dim>
					<dim>20</dim>
					<dim>20</dim>
				</port>
			</input>
			<output>
				<port id="1" precision="FP32" names="/model.22/cvr.0/cvr.0.0/act/Mul_output_0">
					<dim>1</dim>
					<dim>72</dim>
					<dim>20</dim>
					<dim>20</dim>
				</port>
			</output>
		</layer>
		<layer id="321" name="model.22.cvr.0.1.conv.weight" type="Const" version="opset1">
			<data element_type="f32" shape="72, 72, 3, 3" offset="1616416" size="186624" />
			<output>
				<port id="0" precision="FP32" names="model.22.cvr.0.1.conv.weight">
					<dim>72</dim>
					<dim>72</dim>
					<dim>3</dim>
					<dim>3</dim>
				</port>
			</output>
		</layer>
		<layer id="322" name="/model.22/cvr.0/cvr.0.1/conv/Conv/WithoutBiases" type="Convolution" version="opset1">
			<data strides="1, 1" dilations="1, 1" pads_begin="1, 1" pads_end="1, 1" auto_pad="explicit" />
			<input>
				<port id="0" precision="FP32">
					<dim>1</dim>
					<dim>72</dim>
					<dim>20</dim>
					<dim>20</dim>
				</port>
				<port id="1" precision="FP32">
					<dim>72</dim>
					<dim>72</dim>
					<dim>3</dim>
					<dim>3</dim>
				</port>
			</input>
			<output>
				<port id="2" precision="FP32">
					<dim>1</dim>
					<dim>72</dim>
					<dim>20</dim>
					<dim>20</dim>
				</port>
			</output>
		</layer>
		<layer id="323" name="Reshape_2792" type="Const" version="opset1">
			<data element_type="f32" shape="1, 72, 1, 1" offset="1803040" size="288" />
			<output>
				<port id="0" precision="FP32">
					<dim>1</dim>
					<dim>72</dim>
					<dim>1</dim>
					<dim>1</dim>
				</port>
			</output>
		</layer>
		<layer id="324" name="/model.22/cvr.0/cvr.0.1/conv/Conv" type="Add" version="opset1">
			<data auto_broadcast="numpy" />
			<input>
				<port id="0" precision="FP32">
					<dim>1</dim>
					<dim>72</dim>
					<dim>20</dim>
					<dim>20</dim>
				</port>
				<port id="1" precision="FP32">
					<dim>1</dim>
					<dim>72</dim>
					<dim>1</dim>
					<dim>1</dim>
				</port>
			</input>
			<output>
				<port id="2" precision="FP32" names="/model.22/cvr.0/cvr.0.1/conv/Conv_output_0">
					<dim>1</dim>
					<dim>72</dim>
					<dim>20</dim>
					<dim>20</dim>
				</port>
			</output>
		</layer>
		<layer id="325" name="/model.22/cvr.0/cvr.0.1/act/Mul" type="Swish" version="opset4">
			<input>
				<port id="0" precision="FP32">
					<dim>1</dim>
					<dim>72</dim>
					<dim>20</dim>
					<dim>20</dim>
				</port>
			</input>
			<output>
				<port id="1" precision="FP32" names="/model.22/cvr.0/cvr.0.1/act/Mul_output_0">
					<dim>1</dim>
					<dim>72</dim>
					<dim>20</dim>
					<dim>20</dim>
				</port>
			</output>
		</layer>
		<layer id="326" name="model.22.cvr.0.2.weight" type="Const" version="opset1">
			<data element_type="f32" shape="2, 72, 1, 1" offset="1803328" size="576" />
			<output>
				<port id="0" precision="FP32" names="model.22.cvr.0.2.weight">
					<dim>2</dim>
					<dim>72</dim>
					<dim>1</dim>
					<dim>1</dim>
				</port>
			</output>
		</layer>
		<layer id="327" name="/model.22/cvr.0/cvr.0.2/Conv/WithoutBiases" type="Convolution" version="opset1">
			<data strides="1, 1" dilations="1, 1" pads_begin="0, 0" pads_end="0, 0" auto_pad="explicit" />
			<input>
				<port id="0" precision="FP32">
					<dim>1</dim>
					<dim>72</dim>
					<dim>20</dim>
					<dim>20</dim>
				</port>
				<port id="1" precision="FP32">
					<dim>2</dim>
					<dim>72</dim>
					<dim>1</dim>
					<dim>1</dim>
				</port>
			</input>
			<output>
				<port id="2" precision="FP32">
					<dim>1</dim>
					<dim>2</dim>
					<dim>20</dim>
					<dim>20</dim>
				</port>
			</output>
		</layer>
		<layer id="328" name="Reshape_2842" type="Const" version="opset1">
			<data element_type="f32" shape="1, 2, 1, 1" offset="1803904" size="8" />
			<output>
				<port id="0" precision="FP32">
					<dim>1</dim>
					<dim>2</dim>
					<dim>1</dim>
					<dim>1</dim>
				</port>
			</output>
		</layer>
		<layer id="329" name="/model.22/cvr.0/cvr.0.2/Conv" type="Add" version="opset1">
			<data auto_broadcast="numpy" />
			<input>
				<port id="0" precision="FP32">
					<dim>1</dim>
					<dim>2</dim>
					<dim>20</dim>
					<dim>20</dim>
				</port>
				<port id="1" precision="FP32">
					<dim>1</dim>
					<dim>2</dim>
					<dim>1</dim>
					<dim>1</dim>
				</port>
			</input>
			<output>
				<port id="2" precision="FP32" names="/model.22/cvr.0/cvr.0.2/Conv_output_0">
					<dim>1</dim>
					<dim>2</dim>
					<dim>20</dim>
					<dim>20</dim>
				</port>
			</output>
		</layer>
		<layer id="330" name="/model.22/Concat" type="Concat" version="opset1">
			<data axis="1" />
			<input>
				<port id="0" precision="FP32">
					<dim>1</dim>
					<dim>48</dim>
					<dim>20</dim>
					<dim>20</dim>
				</port>
				<port id="1" precision="FP32">
					<dim>1</dim>
					<dim>1</dim>
					<dim>20</dim>
					<dim>20</dim>
				</port>
				<port id="2" precision="FP32">
					<dim>1</dim>
					<dim>1</dim>
					<dim>20</dim>
					<dim>20</dim>
				</port>
				<port id="3" precision="FP32">
					<dim>1</dim>
					<dim>2</dim>
					<dim>20</dim>
					<dim>20</dim>
				</port>
			</input>
			<output>
				<port id="4" precision="FP32" names="/model.22/Concat_output_0">
					<dim>1</dim>
					<dim>52</dim>
					<dim>20</dim>
					<dim>20</dim>
				</port>
			</output>
		</layer>
		<layer id="331" name="/model.22/Constant_8" type="Const" version="opset1">
			<data element_type="i64" shape="3" offset="1803912" size="24" />
			<output>
				<port id="0" precision="I64" names="/model.22/Constant_8_output_0">
					<dim>3</dim>
				</port>
			</output>
		</layer>
		<layer id="332" name="/model.22/Reshape" type="Reshape" version="opset1">
			<data special_zero="true" />
			<input>
				<port id="0" precision="FP32">
					<dim>1</dim>
					<dim>52</dim>
					<dim>20</dim>
					<dim>20</dim>
				</port>
				<port id="1" precision="I64">
					<dim>3</dim>
				</port>
			</input>
			<output>
				<port id="2" precision="FP32" names="/model.22/Concat_1_output_0,/model.22/Reshape_output_0">
					<dim>1</dim>
					<dim>52</dim>
					<dim>400</dim>
				</port>
			</output>
		</layer>
		<layer id="333" name="Constant_2880" type="Const" version="opset1">
			<data element_type="i64" shape="" offset="6656" size="8" />
			<output>
				<port id="0" precision="I64" />
			</output>
		</layer>
		<layer id="334" name="Constant_208" type="Const" version="opset1">
			<data element_type="i64" shape="4" offset="1803936" size="32" />
			<output>
				<port id="0" precision="I64" names="onnx::Split_345">
					<dim>4</dim>
				</port>
			</output>
		</layer>
		<layer id="335" name="/model.22/Split" type="VariadicSplit" version="opset1">
			<input>
				<port id="0" precision="FP32">
					<dim>1</dim>
					<dim>52</dim>
					<dim>400</dim>
				</port>
				<port id="1" precision="I64" />
				<port id="2" precision="I64">
					<dim>4</dim>
				</port>
			</input>
			<output>
				<port id="3" precision="FP32" names="/model.22/Split_output_0">
					<dim>1</dim>
					<dim>48</dim>
					<dim>400</dim>
				</port>
				<port id="4" precision="FP32" names="/model.22/Split_output_1">
					<dim>1</dim>
					<dim>1</dim>
					<dim>400</dim>
				</port>
				<port id="5" precision="FP32" names="/model.22/Split_output_2">
					<dim>1</dim>
					<dim>1</dim>
					<dim>400</dim>
				</port>
				<port id="6" precision="FP32" names="/model.22/Split_output_3">
					<dim>1</dim>
					<dim>2</dim>
					<dim>400</dim>
				</port>
			</output>
		</layer>
		<layer id="336" name="/model.22/dfl/Constant" type="Const" version="opset1">
			<data element_type="i64" shape="4" offset="1803968" size="32" />
			<output>
				<port id="0" precision="I64" names="/model.22/dfl/Constant_output_0">
					<dim>4</dim>
				</port>
			</output>
		</layer>
		<layer id="337" name="/model.22/dfl/Reshape" type="Reshape" version="opset1">
			<data special_zero="true" />
			<input>
				<port id="0" precision="FP32">
					<dim>1</dim>
					<dim>48</dim>
					<dim>400</dim>
				</port>
				<port id="1" precision="I64">
					<dim>4</dim>
				</port>
			</input>
			<output>
				<port id="2" precision="FP32" names="/model.22/dfl/Reshape_output_0">
					<dim>1</dim>
					<dim>8</dim>
					<dim>6</dim>
					<dim>400</dim>
				</port>
			</output>
		</layer>
		<layer id="338" name="Constant_2889" type="Const" version="opset1">
			<data element_type="i64" shape="4" offset="1804000" size="32" />
			<output>
				<port id="0" precision="I64">
					<dim>4</dim>
				</port>
			</output>
		</layer>
		<layer id="339" name="/model.22/dfl/Transpose" type="Transpose" version="opset1">
			<input>
				<port id="0" precision="FP32">
					<dim>1</dim>
					<dim>8</dim>
					<dim>6</dim>
					<dim>400</dim>
				</port>
				<port id="1" precision="I64">
					<dim>4</dim>
				</port>
			</input>
			<output>
				<port id="2" precision="FP32" names="/model.22/dfl/Transpose_output_0">
					<dim>1</dim>
					<dim>6</dim>
					<dim>8</dim>
					<dim>400</dim>
				</port>
			</output>
		</layer>
		<layer id="340" name="/model.22/dfl/Softmax" type="SoftMax" version="opset8">
			<data axis="1" />
			<input>
				<port id="0" precision="FP32">
					<dim>1</dim>
					<dim>6</dim>
					<dim>8</dim>
					<dim>400</dim>
				</port>
			</input>
			<output>
				<port id="1" precision="FP32" names="/model.22/dfl/Softmax_output_0">
					<dim>1</dim>
					<dim>6</dim>
					<dim>8</dim>
					<dim>400</dim>
				</port>
			</output>
		</layer>
		<layer id="341" name="model.22.dfl.conv.weight" type="Const" version="opset1">
			<data element_type="f32" shape="1, 6, 1, 1" offset="1804032" size="24" />
			<output>
				<port id="0" precision="FP32" names="model.22.dfl.conv.weight">
					<dim>1</dim>
					<dim>6</dim>
					<dim>1</dim>
					<dim>1</dim>
				</port>
			</output>
		</layer>
		<layer id="342" name="/model.22/dfl/conv/Conv" type="Convolution" version="opset1">
			<data strides="1, 1" dilations="1, 1" pads_begin="0, 0" pads_end="0, 0" auto_pad="explicit" />
			<input>
				<port id="0" precision="FP32">
					<dim>1</dim>
					<dim>6</dim>
					<dim>8</dim>
					<dim>400</dim>
				</port>
				<port id="1" precision="FP32">
					<dim>1</dim>
					<dim>6</dim>
					<dim>1</dim>
					<dim>1</dim>
				</port>
			</input>
			<output>
				<port id="2" precision="FP32" names="/model.22/dfl/conv/Conv_output_0">
					<dim>1</dim>
					<dim>1</dim>
					<dim>8</dim>
					<dim>400</dim>
				</port>
			</output>
		</layer>
		<layer id="343" name="/model.22/dfl/Constant_1" type="Const" version="opset1">
			<data element_type="i64" shape="3" offset="1804056" size="24" />
			<output>
				<port id="0" precision="I64" names="/model.22/dfl/Constant_1_output_0">
					<dim>3</dim>
				</port>
			</output>
		</layer>
		<layer id="344" name="/model.22/dfl/Reshape_1" type="Reshape" version="opset1">
			<data special_zero="true" />
			<input>
				<port id="0" precision="FP32">
					<dim>1</dim>
					<dim>1</dim>
					<dim>8</dim>
					<dim>400</dim>
				</port>
				<port id="1" precision="I64">
					<dim>3</dim>
				</port>
			</input>
			<output>
				<port id="2" precision="FP32" names="/model.22/dfl/Reshape_1_output_0">
					<dim>1</dim>
					<dim>8</dim>
					<dim>400</dim>
				</port>
			</output>
		</layer>
		<layer id="345" name="Constant_8645" type="Const" version="opset1">
			<data element_type="f32" shape="1, 1, 1" offset="1804080" size="4" />
			<output>
				<port id="0" precision="FP32">
					<dim>1</dim>
					<dim>1</dim>
					<dim>1</dim>
				</port>
			</output>
		</layer>
		<layer id="346" name="/model.22/dfl/Mul" type="Multiply" version="opset1">
			<data auto_broadcast="numpy" />
			<input>
				<port id="0" precision="FP32">
					<dim>1</dim>
					<dim>8</dim>
					<dim>400</dim>
				</port>
				<port id="1" precision="FP32">
					<dim>1</dim>
					<dim>1</dim>
					<dim>1</dim>
				</port>
			</input>
			<output>
				<port id="2" precision="FP32" names="/model.22/dfl/Mul_output_0">
					<dim>1</dim>
					<dim>8</dim>
					<dim>400</dim>
				</port>
			</output>
		</layer>
		<layer id="347" name="Constant_8646" type="Const" version="opset1">
			<data element_type="f32" shape="1, 1, 1" offset="1804084" size="4" />
			<output>
				<port id="0" precision="FP32">
					<dim>1</dim>
					<dim>1</dim>
					<dim>1</dim>
				</port>
			</output>
		</layer>
		<layer id="348" name="/model.22/dfl/Sub" type="Subtract" version="opset1">
			<data auto_broadcast="numpy" />
			<input>
				<port id="0" precision="FP32">
					<dim>1</dim>
					<dim>8</dim>
					<dim>400</dim>
				</port>
				<port id="1" precision="FP32">
					<dim>1</dim>
					<dim>1</dim>
					<dim>1</dim>
				</port>
			</input>
			<output>
				<port id="2" precision="FP32" names="/model.22/dfl/Sub_output_0">
					<dim>1</dim>
					<dim>8</dim>
					<dim>400</dim>
				</port>
			</output>
		</layer>
		<layer id="349" name="Constant_8647" type="Const" version="opset1">
			<data element_type="f32" shape="1, 1, 400" offset="1804088" size="1600" />
			<output>
				<port id="0" precision="FP32">
					<dim>1</dim>
					<dim>1</dim>
					<dim>400</dim>
				</port>
			</output>
		</layer>
		<layer id="350" name="Multiply_8575" type="Multiply" version="opset1">
			<data auto_broadcast="numpy" />
			<input>
				<port id="0" precision="FP32">
					<dim>1</dim>
					<dim>8</dim>
					<dim>400</dim>
				</port>
				<port id="1" precision="FP32">
					<dim>1</dim>
					<dim>1</dim>
					<dim>400</dim>
				</port>
			</input>
			<output>
				<port id="2" precision="FP32">
					<dim>1</dim>
					<dim>8</dim>
					<dim>400</dim>
				</port>
			</output>
		</layer>
		<layer id="351" name="Constant_8577" type="Const" version="opset1">
			<data element_type="f32" shape="1, 8, 400" offset="1805688" size="12800" />
			<output>
				<port id="0" precision="FP32">
					<dim>1</dim>
					<dim>8</dim>
					<dim>400</dim>
				</port>
			</output>
		</layer>
		<layer id="352" name="/model.22/Mul" type="Add" version="opset1">
			<data auto_broadcast="numpy" />
			<input>
				<port id="0" precision="FP32">
					<dim>1</dim>
					<dim>8</dim>
					<dim>400</dim>
				</port>
				<port id="1" precision="FP32">
					<dim>1</dim>
					<dim>8</dim>
					<dim>400</dim>
				</port>
			</input>
			<output>
				<port id="2" precision="FP32" names="/model.22/Mul_output_0">
					<dim>1</dim>
					<dim>8</dim>
					<dim>400</dim>
				</port>
			</output>
		</layer>
		<layer id="353" name="/model.22/Sigmoid" type="Sigmoid" version="opset1">
			<input>
				<port id="0" precision="FP32">
					<dim>1</dim>
					<dim>1</dim>
					<dim>400</dim>
				</port>
			</input>
			<output>
				<port id="1" precision="FP32" names="/model.22/Sigmoid_output_0">
					<dim>1</dim>
					<dim>1</dim>
					<dim>400</dim>
				</port>
			</output>
		</layer>
		<layer id="354" name="/model.22/Sigmoid_1" type="Sigmoid" version="opset1">
			<input>
				<port id="0" precision="FP32">
					<dim>1</dim>
					<dim>1</dim>
					<dim>400</dim>
				</port>
			</input>
			<output>
				<port id="1" precision="FP32" names="/model.22/Sigmoid_1_output_0">
					<dim>1</dim>
					<dim>1</dim>
					<dim>400</dim>
				</port>
			</output>
		</layer>
		<layer id="355" name="/model.22/Sigmoid_2" type="Sigmoid" version="opset1">
			<input>
				<port id="0" precision="FP32">
					<dim>1</dim>
					<dim>2</dim>
					<dim>400</dim>
				</port>
			</input>
			<output>
				<port id="1" precision="FP32" names="/model.22/Sigmoid_2_output_0">
					<dim>1</dim>
					<dim>2</dim>
					<dim>400</dim>
				</port>
			</output>
		</layer>
		<layer id="356" name="/model.22/Concat_2" type="Concat" version="opset1">
			<data axis="1" />
			<input>
				<port id="0" precision="FP32">
					<dim>1</dim>
					<dim>8</dim>
					<dim>400</dim>
				</port>
				<port id="1" precision="FP32">
					<dim>1</dim>
					<dim>1</dim>
					<dim>400</dim>
				</port>
				<port id="2" precision="FP32">
					<dim>1</dim>
					<dim>1</dim>
					<dim>400</dim>
				</port>
				<port id="3" precision="FP32">
					<dim>1</dim>
					<dim>2</dim>
					<dim>400</dim>
				</port>
			</input>
			<output>
				<port id="4" precision="FP32" names="/model.22/Concat_2_output_0">
					<dim>1</dim>
					<dim>12</dim>
					<dim>400</dim>
				</port>
			</output>
		</layer>
		<layer id="357" name="Constant_2950" type="Const" version="opset1">
			<data element_type="i64" shape="3" offset="1818488" size="24" />
			<output>
				<port id="0" precision="I64">
					<dim>3</dim>
				</port>
			</output>
		</layer>
		<layer id="358" name="output0" type="Transpose" version="opset1">
			<input>
				<port id="0" precision="FP32">
					<dim>1</dim>
					<dim>12</dim>
					<dim>400</dim>
				</port>
				<port id="1" precision="I64">
					<dim>3</dim>
				</port>
			</input>
			<output>
				<port id="2" precision="FP32" names="output0">
					<dim>1</dim>
					<dim>400</dim>
					<dim>12</dim>
				</port>
			</output>
		</layer>
		<layer id="359" name="output0/sink_port_0" type="Result" version="opset1">
			<input>
				<port id="0" precision="FP32">
					<dim>1</dim>
					<dim>400</dim>
					<dim>12</dim>
				</port>
			</input>
		</layer>
	</layers>
	<edges>
		<edge from-layer="0" from-port="0" to-layer="2" to-port="0" />
		<edge from-layer="1" from-port="0" to-layer="2" to-port="1" />
		<edge from-layer="2" from-port="2" to-layer="4" to-port="0" />
		<edge from-layer="3" from-port="0" to-layer="4" to-port="1" />
		<edge from-layer="4" from-port="2" to-layer="5" to-port="0" />
		<edge from-layer="5" from-port="1" to-layer="7" to-port="0" />
		<edge from-layer="6" from-port="0" to-layer="7" to-port="1" />
		<edge from-layer="7" from-port="2" to-layer="9" to-port="0" />
		<edge from-layer="8" from-port="0" to-layer="9" to-port="1" />
		<edge from-layer="9" from-port="2" to-layer="10" to-port="0" />
		<edge from-layer="10" from-port="1" to-layer="12" to-port="0" />
		<edge from-layer="11" from-port="0" to-layer="12" to-port="1" />
		<edge from-layer="12" from-port="2" to-layer="14" to-port="0" />
		<edge from-layer="13" from-port="0" to-layer="14" to-port="1" />
		<edge from-layer="14" from-port="2" to-layer="15" to-port="0" />
		<edge from-layer="15" from-port="1" to-layer="18" to-port="0" />
		<edge from-layer="16" from-port="0" to-layer="18" to-port="1" />
		<edge from-layer="17" from-port="0" to-layer="18" to-port="2" />
		<edge from-layer="18" from-port="3" to-layer="30" to-port="0" />
		<edge from-layer="18" from-port="4" to-layer="30" to-port="1" />
		<edge from-layer="18" from-port="4" to-layer="29" to-port="0" />
		<edge from-layer="18" from-port="4" to-layer="20" to-port="0" />
		<edge from-layer="19" from-port="0" to-layer="20" to-port="1" />
		<edge from-layer="20" from-port="2" to-layer="22" to-port="0" />
		<edge from-layer="21" from-port="0" to-layer="22" to-port="1" />
		<edge from-layer="22" from-port="2" to-layer="23" to-port="0" />
		<edge from-layer="23" from-port="1" to-layer="25" to-port="0" />
		<edge from-layer="24" from-port="0" to-layer="25" to-port="1" />
		<edge from-layer="25" from-port="2" to-layer="27" to-port="0" />
		<edge from-layer="26" from-port="0" to-layer="27" to-port="1" />
		<edge from-layer="27" from-port="2" to-layer="28" to-port="0" />
		<edge from-layer="28" from-port="1" to-layer="29" to-port="1" />
		<edge from-layer="29" from-port="2" to-layer="30" to-port="2" />
		<edge from-layer="30" from-port="3" to-layer="32" to-port="0" />
		<edge from-layer="31" from-port="0" to-layer="32" to-port="1" />
		<edge from-layer="32" from-port="2" to-layer="34" to-port="0" />
		<edge from-layer="33" from-port="0" to-layer="34" to-port="1" />
		<edge from-layer="34" from-port="2" to-layer="35" to-port="0" />
		<edge from-layer="35" from-port="1" to-layer="37" to-port="0" />
		<edge from-layer="36" from-port="0" to-layer="37" to-port="1" />
		<edge from-layer="37" from-port="2" to-layer="39" to-port="0" />
		<edge from-layer="38" from-port="0" to-layer="39" to-port="1" />
		<edge from-layer="39" from-port="2" to-layer="40" to-port="0" />
		<edge from-layer="40" from-port="1" to-layer="42" to-port="0" />
		<edge from-layer="41" from-port="0" to-layer="42" to-port="1" />
		<edge from-layer="42" from-port="2" to-layer="44" to-port="0" />
		<edge from-layer="43" from-port="0" to-layer="44" to-port="1" />
		<edge from-layer="44" from-port="2" to-layer="45" to-port="0" />
		<edge from-layer="45" from-port="1" to-layer="48" to-port="0" />
		<edge from-layer="46" from-port="0" to-layer="48" to-port="1" />
		<edge from-layer="47" from-port="0" to-layer="48" to-port="2" />
		<edge from-layer="47" from-port="0" to-layer="205" to-port="2" />
		<edge from-layer="48" from-port="4" to-layer="59" to-port="0" />
		<edge from-layer="48" from-port="3" to-layer="71" to-port="0" />
		<edge from-layer="48" from-port="4" to-layer="71" to-port="1" />
		<edge from-layer="48" from-port="4" to-layer="50" to-port="0" />
		<edge from-layer="49" from-port="0" to-layer="50" to-port="1" />
		<edge from-layer="50" from-port="2" to-layer="52" to-port="0" />
		<edge from-layer="51" from-port="0" to-layer="52" to-port="1" />
		<edge from-layer="52" from-port="2" to-layer="53" to-port="0" />
		<edge from-layer="53" from-port="1" to-layer="55" to-port="0" />
		<edge from-layer="54" from-port="0" to-layer="55" to-port="1" />
		<edge from-layer="55" from-port="2" to-layer="57" to-port="0" />
		<edge from-layer="56" from-port="0" to-layer="57" to-port="1" />
		<edge from-layer="57" from-port="2" to-layer="58" to-port="0" />
		<edge from-layer="58" from-port="1" to-layer="59" to-port="1" />
		<edge from-layer="59" from-port="2" to-layer="70" to-port="0" />
		<edge from-layer="59" from-port="2" to-layer="71" to-port="2" />
		<edge from-layer="59" from-port="2" to-layer="61" to-port="0" />
		<edge from-layer="60" from-port="0" to-layer="61" to-port="1" />
		<edge from-layer="61" from-port="2" to-layer="63" to-port="0" />
		<edge from-layer="62" from-port="0" to-layer="63" to-port="1" />
		<edge from-layer="63" from-port="2" to-layer="64" to-port="0" />
		<edge from-layer="64" from-port="1" to-layer="66" to-port="0" />
		<edge from-layer="65" from-port="0" to-layer="66" to-port="1" />
		<edge from-layer="66" from-port="2" to-layer="68" to-port="0" />
		<edge from-layer="67" from-port="0" to-layer="68" to-port="1" />
		<edge from-layer="68" from-port="2" to-layer="69" to-port="0" />
		<edge from-layer="69" from-port="1" to-layer="70" to-port="1" />
		<edge from-layer="70" from-port="2" to-layer="71" to-port="3" />
		<edge from-layer="71" from-port="4" to-layer="73" to-port="0" />
		<edge from-layer="72" from-port="0" to-layer="73" to-port="1" />
		<edge from-layer="73" from-port="2" to-layer="75" to-port="0" />
		<edge from-layer="74" from-port="0" to-layer="75" to-port="1" />
		<edge from-layer="75" from-port="2" to-layer="76" to-port="0" />
		<edge from-layer="76" from-port="1" to-layer="78" to-port="0" />
		<edge from-layer="76" from-port="1" to-layer="198" to-port="1" />
		<edge from-layer="77" from-port="0" to-layer="78" to-port="1" />
		<edge from-layer="78" from-port="2" to-layer="80" to-port="0" />
		<edge from-layer="79" from-port="0" to-layer="80" to-port="1" />
		<edge from-layer="80" from-port="2" to-layer="81" to-port="0" />
		<edge from-layer="81" from-port="1" to-layer="83" to-port="0" />
		<edge from-layer="82" from-port="0" to-layer="83" to-port="1" />
		<edge from-layer="83" from-port="2" to-layer="85" to-port="0" />
		<edge from-layer="84" from-port="0" to-layer="85" to-port="1" />
		<edge from-layer="85" from-port="2" to-layer="86" to-port="0" />
		<edge from-layer="86" from-port="1" to-layer="89" to-port="0" />
		<edge from-layer="87" from-port="0" to-layer="89" to-port="1" />
		<edge from-layer="88" from-port="0" to-layer="89" to-port="2" />
		<edge from-layer="88" from-port="0" to-layer="175" to-port="2" />
		<edge from-layer="88" from-port="0" to-layer="234" to-port="2" />
		<edge from-layer="89" from-port="3" to-layer="112" to-port="0" />
		<edge from-layer="89" from-port="4" to-layer="112" to-port="1" />
		<edge from-layer="89" from-port="4" to-layer="100" to-port="0" />
		<edge from-layer="89" from-port="4" to-layer="91" to-port="0" />
		<edge from-layer="90" from-port="0" to-layer="91" to-port="1" />
		<edge from-layer="91" from-port="2" to-layer="93" to-port="0" />
		<edge from-layer="92" from-port="0" to-layer="93" to-port="1" />
		<edge from-layer="93" from-port="2" to-layer="94" to-port="0" />
		<edge from-layer="94" from-port="1" to-layer="96" to-port="0" />
		<edge from-layer="95" from-port="0" to-layer="96" to-port="1" />
		<edge from-layer="96" from-port="2" to-layer="98" to-port="0" />
		<edge from-layer="97" from-port="0" to-layer="98" to-port="1" />
		<edge from-layer="98" from-port="2" to-layer="99" to-port="0" />
		<edge from-layer="99" from-port="1" to-layer="100" to-port="1" />
		<edge from-layer="100" from-port="2" to-layer="102" to-port="0" />
		<edge from-layer="100" from-port="2" to-layer="111" to-port="0" />
		<edge from-layer="100" from-port="2" to-layer="112" to-port="2" />
		<edge from-layer="101" from-port="0" to-layer="102" to-port="1" />
		<edge from-layer="102" from-port="2" to-layer="104" to-port="0" />
		<edge from-layer="103" from-port="0" to-layer="104" to-port="1" />
		<edge from-layer="104" from-port="2" to-layer="105" to-port="0" />
		<edge from-layer="105" from-port="1" to-layer="107" to-port="0" />
		<edge from-layer="106" from-port="0" to-layer="107" to-port="1" />
		<edge from-layer="107" from-port="2" to-layer="109" to-port="0" />
		<edge from-layer="108" from-port="0" to-layer="109" to-port="1" />
		<edge from-layer="109" from-port="2" to-layer="110" to-port="0" />
		<edge from-layer="110" from-port="1" to-layer="111" to-port="1" />
		<edge from-layer="111" from-port="2" to-layer="112" to-port="3" />
		<edge from-layer="112" from-port="4" to-layer="114" to-port="0" />
		<edge from-layer="113" from-port="0" to-layer="114" to-port="1" />
		<edge from-layer="114" from-port="2" to-layer="116" to-port="0" />
		<edge from-layer="115" from-port="0" to-layer="116" to-port="1" />
		<edge from-layer="116" from-port="2" to-layer="117" to-port="0" />
		<edge from-layer="117" from-port="1" to-layer="168" to-port="1" />
		<edge from-layer="117" from-port="1" to-layer="119" to-port="0" />
		<edge from-layer="118" from-port="0" to-layer="119" to-port="1" />
		<edge from-layer="119" from-port="2" to-layer="121" to-port="0" />
		<edge from-layer="120" from-port="0" to-layer="121" to-port="1" />
		<edge from-layer="121" from-port="2" to-layer="122" to-port="0" />
		<edge from-layer="122" from-port="1" to-layer="124" to-port="0" />
		<edge from-layer="123" from-port="0" to-layer="124" to-port="1" />
		<edge from-layer="124" from-port="2" to-layer="126" to-port="0" />
		<edge from-layer="125" from-port="0" to-layer="126" to-port="1" />
		<edge from-layer="126" from-port="2" to-layer="127" to-port="0" />
		<edge from-layer="127" from-port="1" to-layer="130" to-port="0" />
		<edge from-layer="128" from-port="0" to-layer="130" to-port="1" />
		<edge from-layer="129" from-port="0" to-layer="130" to-port="2" />
		<edge from-layer="129" from-port="0" to-layer="263" to-port="2" />
		<edge from-layer="130" from-port="4" to-layer="132" to-port="0" />
		<edge from-layer="130" from-port="4" to-layer="142" to-port="1" />
		<edge from-layer="130" from-port="3" to-layer="142" to-port="0" />
		<edge from-layer="130" from-port="4" to-layer="141" to-port="0" />
		<edge from-layer="131" from-port="0" to-layer="132" to-port="1" />
		<edge from-layer="132" from-port="2" to-layer="134" to-port="0" />
		<edge from-layer="133" from-port="0" to-layer="134" to-port="1" />
		<edge from-layer="134" from-port="2" to-layer="135" to-port="0" />
		<edge from-layer="135" from-port="1" to-layer="137" to-port="0" />
		<edge from-layer="136" from-port="0" to-layer="137" to-port="1" />
		<edge from-layer="137" from-port="2" to-layer="139" to-port="0" />
		<edge from-layer="138" from-port="0" to-layer="139" to-port="1" />
		<edge from-layer="139" from-port="2" to-layer="140" to-port="0" />
		<edge from-layer="140" from-port="1" to-layer="141" to-port="1" />
		<edge from-layer="141" from-port="2" to-layer="142" to-port="2" />
		<edge from-layer="142" from-port="3" to-layer="144" to-port="0" />
		<edge from-layer="143" from-port="0" to-layer="144" to-port="1" />
		<edge from-layer="144" from-port="2" to-layer="146" to-port="0" />
		<edge from-layer="145" from-port="0" to-layer="146" to-port="1" />
		<edge from-layer="146" from-port="2" to-layer="147" to-port="0" />
		<edge from-layer="147" from-port="1" to-layer="149" to-port="0" />
		<edge from-layer="148" from-port="0" to-layer="149" to-port="1" />
		<edge from-layer="149" from-port="2" to-layer="151" to-port="0" />
		<edge from-layer="150" from-port="0" to-layer="151" to-port="1" />
		<edge from-layer="151" from-port="2" to-layer="152" to-port="0" />
		<edge from-layer="152" from-port="1" to-layer="153" to-port="0" />
		<edge from-layer="152" from-port="1" to-layer="156" to-port="0" />
		<edge from-layer="153" from-port="1" to-layer="154" to-port="0" />
		<edge from-layer="153" from-port="1" to-layer="156" to-port="1" />
		<edge from-layer="154" from-port="1" to-layer="156" to-port="2" />
		<edge from-layer="154" from-port="1" to-layer="155" to-port="0" />
		<edge from-layer="155" from-port="1" to-layer="156" to-port="3" />
		<edge from-layer="156" from-port="4" to-layer="158" to-port="0" />
		<edge from-layer="157" from-port="0" to-layer="158" to-port="1" />
		<edge from-layer="158" from-port="2" to-layer="160" to-port="0" />
		<edge from-layer="159" from-port="0" to-layer="160" to-port="1" />
		<edge from-layer="160" from-port="2" to-layer="161" to-port="0" />
		<edge from-layer="161" from-port="1" to-layer="167" to-port="0" />
		<edge from-layer="161" from-port="1" to-layer="256" to-port="1" />
		<edge from-layer="161" from-port="1" to-layer="162" to-port="0" />
		<edge from-layer="162" from-port="1" to-layer="163" to-port="0" />
		<edge from-layer="163" from-port="1" to-layer="165" to-port="0" />
		<edge from-layer="164" from-port="0" to-layer="167" to-port="2" />
		<edge from-layer="164" from-port="0" to-layer="165" to-port="1" />
		<edge from-layer="165" from-port="2" to-layer="166" to-port="0" />
		<edge from-layer="166" from-port="1" to-layer="167" to-port="1" />
		<edge from-layer="167" from-port="3" to-layer="168" to-port="0" />
		<edge from-layer="168" from-port="2" to-layer="170" to-port="0" />
		<edge from-layer="169" from-port="0" to-layer="170" to-port="1" />
		<edge from-layer="170" from-port="2" to-layer="172" to-port="0" />
		<edge from-layer="171" from-port="0" to-layer="172" to-port="1" />
		<edge from-layer="172" from-port="2" to-layer="173" to-port="0" />
		<edge from-layer="173" from-port="1" to-layer="175" to-port="0" />
		<edge from-layer="174" from-port="0" to-layer="175" to-port="1" />
		<edge from-layer="175" from-port="4" to-layer="177" to-port="0" />
		<edge from-layer="175" from-port="3" to-layer="186" to-port="0" />
		<edge from-layer="175" from-port="4" to-layer="186" to-port="1" />
		<edge from-layer="176" from-port="0" to-layer="177" to-port="1" />
		<edge from-layer="177" from-port="2" to-layer="179" to-port="0" />
		<edge from-layer="178" from-port="0" to-layer="179" to-port="1" />
		<edge from-layer="179" from-port="2" to-layer="180" to-port="0" />
		<edge from-layer="180" from-port="1" to-layer="182" to-port="0" />
		<edge from-layer="181" from-port="0" to-layer="182" to-port="1" />
		<edge from-layer="182" from-port="2" to-layer="184" to-port="0" />
		<edge from-layer="183" from-port="0" to-layer="184" to-port="1" />
		<edge from-layer="184" from-port="2" to-layer="185" to-port="0" />
		<edge from-layer="185" from-port="1" to-layer="186" to-port="2" />
		<edge from-layer="186" from-port="3" to-layer="188" to-port="0" />
		<edge from-layer="187" from-port="0" to-layer="188" to-port="1" />
		<edge from-layer="188" from-port="2" to-layer="190" to-port="0" />
		<edge from-layer="189" from-port="0" to-layer="190" to-port="1" />
		<edge from-layer="190" from-port="2" to-layer="191" to-port="0" />
		<edge from-layer="191" from-port="1" to-layer="227" to-port="1" />
		<edge from-layer="191" from-port="1" to-layer="197" to-port="0" />
		<edge from-layer="191" from-port="1" to-layer="192" to-port="0" />
		<edge from-layer="192" from-port="1" to-layer="193" to-port="0" />
		<edge from-layer="193" from-port="1" to-layer="195" to-port="0" />
		<edge from-layer="194" from-port="0" to-layer="197" to-port="2" />
		<edge from-layer="194" from-port="0" to-layer="195" to-port="1" />
		<edge from-layer="195" from-port="2" to-layer="196" to-port="0" />
		<edge from-layer="196" from-port="1" to-layer="197" to-port="1" />
		<edge from-layer="197" from-port="3" to-layer="198" to-port="0" />
		<edge from-layer="198" from-port="2" to-layer="200" to-port="0" />
		<edge from-layer="199" from-port="0" to-layer="200" to-port="1" />
		<edge from-layer="200" from-port="2" to-layer="202" to-port="0" />
		<edge from-layer="201" from-port="0" to-layer="202" to-port="1" />
		<edge from-layer="202" from-port="2" to-layer="203" to-port="0" />
		<edge from-layer="203" from-port="1" to-layer="205" to-port="0" />
		<edge from-layer="204" from-port="0" to-layer="205" to-port="1" />
		<edge from-layer="205" from-port="4" to-layer="207" to-port="0" />
		<edge from-layer="205" from-port="4" to-layer="216" to-port="1" />
		<edge from-layer="205" from-port="3" to-layer="216" to-port="0" />
		<edge from-layer="206" from-port="0" to-layer="207" to-port="1" />
		<edge from-layer="207" from-port="2" to-layer="209" to-port="0" />
		<edge from-layer="208" from-port="0" to-layer="209" to-port="1" />
		<edge from-layer="209" from-port="2" to-layer="210" to-port="0" />
		<edge from-layer="210" from-port="1" to-layer="212" to-port="0" />
		<edge from-layer="211" from-port="0" to-layer="212" to-port="1" />
		<edge from-layer="212" from-port="2" to-layer="214" to-port="0" />
		<edge from-layer="213" from-port="0" to-layer="214" to-port="1" />
		<edge from-layer="214" from-port="2" to-layer="215" to-port="0" />
		<edge from-layer="215" from-port="1" to-layer="216" to-port="2" />
		<edge from-layer="216" from-port="3" to-layer="218" to-port="0" />
		<edge from-layer="217" from-port="0" to-layer="218" to-port="1" />
		<edge from-layer="218" from-port="2" to-layer="220" to-port="0" />
		<edge from-layer="219" from-port="0" to-layer="220" to-port="1" />
		<edge from-layer="220" from-port="2" to-layer="221" to-port="0" />
		<edge from-layer="221" from-port="1" to-layer="223" to-port="0" />
		<edge from-layer="222" from-port="0" to-layer="223" to-port="1" />
		<edge from-layer="223" from-port="2" to-layer="225" to-port="0" />
		<edge from-layer="224" from-port="0" to-layer="225" to-port="1" />
		<edge from-layer="225" from-port="2" to-layer="226" to-port="0" />
		<edge from-layer="226" from-port="1" to-layer="227" to-port="0" />
		<edge from-layer="227" from-port="2" to-layer="229" to-port="0" />
		<edge from-layer="228" from-port="0" to-layer="229" to-port="1" />
		<edge from-layer="229" from-port="2" to-layer="231" to-port="0" />
		<edge from-layer="230" from-port="0" to-layer="231" to-port="1" />
		<edge from-layer="231" from-port="2" to-layer="232" to-port="0" />
		<edge from-layer="232" from-port="1" to-layer="234" to-port="0" />
		<edge from-layer="233" from-port="0" to-layer="234" to-port="1" />
		<edge from-layer="234" from-port="3" to-layer="245" to-port="0" />
		<edge from-layer="234" from-port="4" to-layer="245" to-port="1" />
		<edge from-layer="234" from-port="4" to-layer="236" to-port="0" />
		<edge from-layer="235" from-port="0" to-layer="236" to-port="1" />
		<edge from-layer="236" from-port="2" to-layer="238" to-port="0" />
		<edge from-layer="237" from-port="0" to-layer="238" to-port="1" />
		<edge from-layer="238" from-port="2" to-layer="239" to-port="0" />
		<edge from-layer="239" from-port="1" to-layer="241" to-port="0" />
		<edge from-layer="240" from-port="0" to-layer="241" to-port="1" />
		<edge from-layer="241" from-port="2" to-layer="243" to-port="0" />
		<edge from-layer="242" from-port="0" to-layer="243" to-port="1" />
		<edge from-layer="243" from-port="2" to-layer="244" to-port="0" />
		<edge from-layer="244" from-port="1" to-layer="245" to-port="2" />
		<edge from-layer="245" from-port="3" to-layer="247" to-port="0" />
		<edge from-layer="246" from-port="0" to-layer="247" to-port="1" />
		<edge from-layer="247" from-port="2" to-layer="249" to-port="0" />
		<edge from-layer="248" from-port="0" to-layer="249" to-port="1" />
		<edge from-layer="249" from-port="2" to-layer="250" to-port="0" />
		<edge from-layer="250" from-port="1" to-layer="252" to-port="0" />
		<edge from-layer="251" from-port="0" to-layer="252" to-port="1" />
		<edge from-layer="252" from-port="2" to-layer="254" to-port="0" />
		<edge from-layer="253" from-port="0" to-layer="254" to-port="1" />
		<edge from-layer="254" from-port="2" to-layer="255" to-port="0" />
		<edge from-layer="255" from-port="1" to-layer="256" to-port="0" />
		<edge from-layer="256" from-port="2" to-layer="258" to-port="0" />
		<edge from-layer="257" from-port="0" to-layer="258" to-port="1" />
		<edge from-layer="258" from-port="2" to-layer="260" to-port="0" />
		<edge from-layer="259" from-port="0" to-layer="260" to-port="1" />
		<edge from-layer="260" from-port="2" to-layer="261" to-port="0" />
		<edge from-layer="261" from-port="1" to-layer="263" to-port="0" />
		<edge from-layer="262" from-port="0" to-layer="263" to-port="1" />
		<edge from-layer="263" from-port="3" to-layer="274" to-port="0" />
		<edge from-layer="263" from-port="4" to-layer="274" to-port="1" />
		<edge from-layer="263" from-port="4" to-layer="265" to-port="0" />
		<edge from-layer="264" from-port="0" to-layer="265" to-port="1" />
		<edge from-layer="265" from-port="2" to-layer="267" to-port="0" />
		<edge from-layer="266" from-port="0" to-layer="267" to-port="1" />
		<edge from-layer="267" from-port="2" to-layer="268" to-port="0" />
		<edge from-layer="268" from-port="1" to-layer="270" to-port="0" />
		<edge from-layer="269" from-port="0" to-layer="270" to-port="1" />
		<edge from-layer="270" from-port="2" to-layer="272" to-port="0" />
		<edge from-layer="271" from-port="0" to-layer="272" to-port="1" />
		<edge from-layer="272" from-port="2" to-layer="273" to-port="0" />
		<edge from-layer="273" from-port="1" to-layer="274" to-port="2" />
		<edge from-layer="274" from-port="3" to-layer="276" to-port="0" />
		<edge from-layer="275" from-port="0" to-layer="276" to-port="1" />
		<edge from-layer="276" from-port="2" to-layer="278" to-port="0" />
		<edge from-layer="277" from-port="0" to-layer="278" to-port="1" />
		<edge from-layer="278" from-port="2" to-layer="279" to-port="0" />
		<edge from-layer="279" from-port="1" to-layer="281" to-port="0" />
		<edge from-layer="279" from-port="1" to-layer="317" to-port="0" />
		<edge from-layer="279" from-port="1" to-layer="299" to-port="0" />
		<edge from-layer="280" from-port="0" to-layer="281" to-port="1" />
		<edge from-layer="281" from-port="2" to-layer="283" to-port="0" />
		<edge from-layer="282" from-port="0" to-layer="283" to-port="1" />
		<edge from-layer="283" from-port="2" to-layer="284" to-port="0" />
		<edge from-layer="284" from-port="1" to-layer="286" to-port="0" />
		<edge from-layer="285" from-port="0" to-layer="286" to-port="1" />
		<edge from-layer="286" from-port="2" to-layer="288" to-port="0" />
		<edge from-layer="287" from-port="0" to-layer="288" to-port="1" />
		<edge from-layer="288" from-port="2" to-layer="289" to-port="0" />
		<edge from-layer="289" from-port="1" to-layer="291" to-port="0" />
		<edge from-layer="290" from-port="0" to-layer="291" to-port="1" />
		<edge from-layer="291" from-port="2" to-layer="293" to-port="0" />
		<edge from-layer="292" from-port="0" to-layer="293" to-port="1" />
		<edge from-layer="293" from-port="2" to-layer="297" to-port="0" />
		<edge from-layer="293" from-port="2" to-layer="315" to-port="0" />
		<edge from-layer="294" from-port="0" to-layer="297" to-port="1" />
		<edge from-layer="295" from-port="0" to-layer="297" to-port="2" />
		<edge from-layer="296" from-port="0" to-layer="297" to-port="3" />
		<edge from-layer="297" from-port="4" to-layer="330" to-port="0" />
		<edge from-layer="298" from-port="0" to-layer="299" to-port="1" />
		<edge from-layer="299" from-port="2" to-layer="301" to-port="0" />
		<edge from-layer="300" from-port="0" to-layer="301" to-port="1" />
		<edge from-layer="301" from-port="2" to-layer="302" to-port="0" />
		<edge from-layer="302" from-port="1" to-layer="304" to-port="0" />
		<edge from-layer="303" from-port="0" to-layer="304" to-port="1" />
		<edge from-layer="304" from-port="2" to-layer="306" to-port="0" />
		<edge from-layer="305" from-port="0" to-layer="306" to-port="1" />
		<edge from-layer="306" from-port="2" to-layer="307" to-port="0" />
		<edge from-layer="307" from-port="1" to-layer="309" to-port="0" />
		<edge from-layer="308" from-port="0" to-layer="309" to-port="1" />
		<edge from-layer="309" from-port="2" to-layer="311" to-port="0" />
		<edge from-layer="310" from-port="0" to-layer="311" to-port="1" />
		<edge from-layer="311" from-port="2" to-layer="330" to-port="1" />
		<edge from-layer="312" from-port="0" to-layer="315" to-port="1" />
		<edge from-layer="313" from-port="0" to-layer="315" to-port="2" />
		<edge from-layer="314" from-port="0" to-layer="315" to-port="3" />
		<edge from-layer="315" from-port="4" to-layer="330" to-port="2" />
		<edge from-layer="316" from-port="0" to-layer="317" to-port="1" />
		<edge from-layer="317" from-port="2" to-layer="319" to-port="0" />
		<edge from-layer="318" from-port="0" to-layer="319" to-port="1" />
		<edge from-layer="319" from-port="2" to-layer="320" to-port="0" />
		<edge from-layer="320" from-port="1" to-layer="322" to-port="0" />
		<edge from-layer="321" from-port="0" to-layer="322" to-port="1" />
		<edge from-layer="322" from-port="2" to-layer="324" to-port="0" />
		<edge from-layer="323" from-port="0" to-layer="324" to-port="1" />
		<edge from-layer="324" from-port="2" to-layer="325" to-port="0" />
		<edge from-layer="325" from-port="1" to-layer="327" to-port="0" />
		<edge from-layer="326" from-port="0" to-layer="327" to-port="1" />
		<edge from-layer="327" from-port="2" to-layer="329" to-port="0" />
		<edge from-layer="328" from-port="0" to-layer="329" to-port="1" />
		<edge from-layer="329" from-port="2" to-layer="330" to-port="3" />
		<edge from-layer="330" from-port="4" to-layer="332" to-port="0" />
		<edge from-layer="331" from-port="0" to-layer="332" to-port="1" />
		<edge from-layer="332" from-port="2" to-layer="335" to-port="0" />
		<edge from-layer="333" from-port="0" to-layer="335" to-port="1" />
		<edge from-layer="334" from-port="0" to-layer="335" to-port="2" />
		<edge from-layer="335" from-port="3" to-layer="337" to-port="0" />
		<edge from-layer="335" from-port="6" to-layer="355" to-port="0" />
		<edge from-layer="335" from-port="5" to-layer="354" to-port="0" />
		<edge from-layer="335" from-port="4" to-layer="353" to-port="0" />
		<edge from-layer="336" from-port="0" to-layer="337" to-port="1" />
		<edge from-layer="337" from-port="2" to-layer="339" to-port="0" />
		<edge from-layer="338" from-port="0" to-layer="339" to-port="1" />
		<edge from-layer="339" from-port="2" to-layer="340" to-port="0" />
		<edge from-layer="340" from-port="1" to-layer="342" to-port="0" />
		<edge from-layer="341" from-port="0" to-layer="342" to-port="1" />
		<edge from-layer="342" from-port="2" to-layer="344" to-port="0" />
		<edge from-layer="343" from-port="0" to-layer="344" to-port="1" />
		<edge from-layer="344" from-port="2" to-layer="346" to-port="0" />
		<edge from-layer="345" from-port="0" to-layer="346" to-port="1" />
		<edge from-layer="346" from-port="2" to-layer="348" to-port="0" />
		<edge from-layer="347" from-port="0" to-layer="348" to-port="1" />
		<edge from-layer="348" from-port="2" to-layer="350" to-port="0" />
		<edge from-layer="349" from-port="0" to-layer="350" to-port="1" />
		<edge from-layer="350" from-port="2" to-layer="352" to-port="0" />
		<edge from-layer="351" from-port="0" to-layer="352" to-port="1" />
		<edge from-layer="352" from-port="2" to-layer="356" to-port="0" />
		<edge from-layer="353" from-port="1" to-layer="356" to-port="1" />
		<edge from-layer="354" from-port="1" to-layer="356" to-port="2" />
		<edge from-layer="355" from-port="1" to-layer="356" to-port="3" />
		<edge from-layer="356" from-port="4" to-layer="358" to-port="0" />
		<edge from-layer="357" from-port="0" to-layer="358" to-port="1" />
		<edge from-layer="358" from-port="2" to-layer="359" to-port="0" />
	</edges>
	<rt_info>
		<MO_version value="2022.3.0-9052-9752fafe8eb-releases/2022/3" />
		<Runtime_version value="2022.3.0-9052-9752fafe8eb-releases/2022/3" />
		<conversion_parameters>
			<framework value="onnx" />
			<input_model value="DIR/best.onnx" />
			<model_name value="YOLOv8n-MK_anti-wind" />
		</conversion_parameters>
		<framework>
			<author value="hh" />
			<batch value="1" />
			<description value="hh YOLOv8n-MK_anti-wind model trained on RM_anti-wind.yaml" />
			<imgsz value="[640, 640]" />
			<license value="GPL-3.0 https://ultralytics.com/license" />
			<names value="{0: 'W'}" />
			<stride value="32" />
			<task value="detect" />
			<version value="8.0.62" />
		</framework>
		<legacy_frontend value="False" />
	</rt_info>
</net>
